<?xml version="1.0"?>
<net name="Model33" version="11">
	<layers>
		<layer id="98" name="attention_mask" type="Parameter" version="opset1">
			<data shape="?,?" element_type="i64" />
			<output>
				<port id="0" precision="I64" names="encoder_attention_mask">
					<dim>-1</dim>
					<dim>-1</dim>
				</port>
			</output>
		</layer>
		<layer id="97" name="decoder_input_ids" type="Parameter" version="opset1">
			<data shape="?,?" element_type="i64" />
			<output>
				<port id="0" precision="I64" names="input_ids">
					<dim>-1</dim>
					<dim>-1</dim>
				</port>
			</output>
		</layer>
		<layer id="96" name="Parameter_200664" type="Parameter" version="opset1">
			<data shape="?,?,1024" element_type="f32" />
			<output>
				<port id="0" precision="FP32" names="encoder_hidden_states">
					<dim>-1</dim>
					<dim>-1</dim>
					<dim>1024</dim>
				</port>
			</output>
		</layer>
		<layer id="95" name="Parameter_200692" type="Parameter" version="opset1">
			<data shape="?,16,?,64" element_type="f32" />
			<output>
				<port id="0" precision="FP32" names="past_key_values.0.decoder.key">
					<dim>-1</dim>
					<dim>16</dim>
					<dim>-1</dim>
					<dim>64</dim>
				</port>
			</output>
		</layer>
		<layer id="94" name="Parameter_200691" type="Parameter" version="opset1">
			<data shape="?,16,?,64" element_type="f32" />
			<output>
				<port id="0" precision="FP32" names="past_key_values.0.decoder.value">
					<dim>-1</dim>
					<dim>16</dim>
					<dim>-1</dim>
					<dim>64</dim>
				</port>
			</output>
		</layer>
		<layer id="93" name="Parameter_200690" type="Parameter" version="opset1">
			<data shape="?,16,?,64" element_type="f32" />
			<output>
				<port id="0" precision="FP32" names="past_key_values.0.encoder.key">
					<dim>-1</dim>
					<dim>16</dim>
					<dim>-1</dim>
					<dim>64</dim>
				</port>
			</output>
		</layer>
		<layer id="92" name="Parameter_200689" type="Parameter" version="opset1">
			<data shape="?,16,?,64" element_type="f32" />
			<output>
				<port id="0" precision="FP32" names="past_key_values.0.encoder.value">
					<dim>-1</dim>
					<dim>16</dim>
					<dim>-1</dim>
					<dim>64</dim>
				</port>
			</output>
		</layer>
		<layer id="91" name="Parameter_200696" type="Parameter" version="opset1">
			<data shape="?,16,?,64" element_type="f32" />
			<output>
				<port id="0" precision="FP32" names="past_key_values.1.decoder.key">
					<dim>-1</dim>
					<dim>16</dim>
					<dim>-1</dim>
					<dim>64</dim>
				</port>
			</output>
		</layer>
		<layer id="90" name="Parameter_200695" type="Parameter" version="opset1">
			<data shape="?,16,?,64" element_type="f32" />
			<output>
				<port id="0" precision="FP32" names="past_key_values.1.decoder.value">
					<dim>-1</dim>
					<dim>16</dim>
					<dim>-1</dim>
					<dim>64</dim>
				</port>
			</output>
		</layer>
		<layer id="89" name="Parameter_200694" type="Parameter" version="opset1">
			<data shape="?,16,?,64" element_type="f32" />
			<output>
				<port id="0" precision="FP32" names="past_key_values.1.encoder.key">
					<dim>-1</dim>
					<dim>16</dim>
					<dim>-1</dim>
					<dim>64</dim>
				</port>
			</output>
		</layer>
		<layer id="88" name="Parameter_200693" type="Parameter" version="opset1">
			<data shape="?,16,?,64" element_type="f32" />
			<output>
				<port id="0" precision="FP32" names="past_key_values.1.encoder.value">
					<dim>-1</dim>
					<dim>16</dim>
					<dim>-1</dim>
					<dim>64</dim>
				</port>
			</output>
		</layer>
		<layer id="87" name="Parameter_200700" type="Parameter" version="opset1">
			<data shape="?,16,?,64" element_type="f32" />
			<output>
				<port id="0" precision="FP32" names="past_key_values.2.decoder.key">
					<dim>-1</dim>
					<dim>16</dim>
					<dim>-1</dim>
					<dim>64</dim>
				</port>
			</output>
		</layer>
		<layer id="86" name="Parameter_200699" type="Parameter" version="opset1">
			<data shape="?,16,?,64" element_type="f32" />
			<output>
				<port id="0" precision="FP32" names="past_key_values.2.decoder.value">
					<dim>-1</dim>
					<dim>16</dim>
					<dim>-1</dim>
					<dim>64</dim>
				</port>
			</output>
		</layer>
		<layer id="85" name="Parameter_200698" type="Parameter" version="opset1">
			<data shape="?,16,?,64" element_type="f32" />
			<output>
				<port id="0" precision="FP32" names="past_key_values.2.encoder.key">
					<dim>-1</dim>
					<dim>16</dim>
					<dim>-1</dim>
					<dim>64</dim>
				</port>
			</output>
		</layer>
		<layer id="84" name="Parameter_200697" type="Parameter" version="opset1">
			<data shape="?,16,?,64" element_type="f32" />
			<output>
				<port id="0" precision="FP32" names="past_key_values.2.encoder.value">
					<dim>-1</dim>
					<dim>16</dim>
					<dim>-1</dim>
					<dim>64</dim>
				</port>
			</output>
		</layer>
		<layer id="83" name="Parameter_200704" type="Parameter" version="opset1">
			<data shape="?,16,?,64" element_type="f32" />
			<output>
				<port id="0" precision="FP32" names="past_key_values.3.decoder.key">
					<dim>-1</dim>
					<dim>16</dim>
					<dim>-1</dim>
					<dim>64</dim>
				</port>
			</output>
		</layer>
		<layer id="82" name="Parameter_200703" type="Parameter" version="opset1">
			<data shape="?,16,?,64" element_type="f32" />
			<output>
				<port id="0" precision="FP32" names="past_key_values.3.decoder.value">
					<dim>-1</dim>
					<dim>16</dim>
					<dim>-1</dim>
					<dim>64</dim>
				</port>
			</output>
		</layer>
		<layer id="81" name="Parameter_200702" type="Parameter" version="opset1">
			<data shape="?,16,?,64" element_type="f32" />
			<output>
				<port id="0" precision="FP32" names="past_key_values.3.encoder.key">
					<dim>-1</dim>
					<dim>16</dim>
					<dim>-1</dim>
					<dim>64</dim>
				</port>
			</output>
		</layer>
		<layer id="80" name="Parameter_200701" type="Parameter" version="opset1">
			<data shape="?,16,?,64" element_type="f32" />
			<output>
				<port id="0" precision="FP32" names="past_key_values.3.encoder.value">
					<dim>-1</dim>
					<dim>16</dim>
					<dim>-1</dim>
					<dim>64</dim>
				</port>
			</output>
		</layer>
		<layer id="79" name="Parameter_200708" type="Parameter" version="opset1">
			<data shape="?,16,?,64" element_type="f32" />
			<output>
				<port id="0" precision="FP32" names="past_key_values.4.decoder.key">
					<dim>-1</dim>
					<dim>16</dim>
					<dim>-1</dim>
					<dim>64</dim>
				</port>
			</output>
		</layer>
		<layer id="78" name="Parameter_200707" type="Parameter" version="opset1">
			<data shape="?,16,?,64" element_type="f32" />
			<output>
				<port id="0" precision="FP32" names="past_key_values.4.decoder.value">
					<dim>-1</dim>
					<dim>16</dim>
					<dim>-1</dim>
					<dim>64</dim>
				</port>
			</output>
		</layer>
		<layer id="77" name="Parameter_200706" type="Parameter" version="opset1">
			<data shape="?,16,?,64" element_type="f32" />
			<output>
				<port id="0" precision="FP32" names="past_key_values.4.encoder.key">
					<dim>-1</dim>
					<dim>16</dim>
					<dim>-1</dim>
					<dim>64</dim>
				</port>
			</output>
		</layer>
		<layer id="76" name="Parameter_200705" type="Parameter" version="opset1">
			<data shape="?,16,?,64" element_type="f32" />
			<output>
				<port id="0" precision="FP32" names="past_key_values.4.encoder.value">
					<dim>-1</dim>
					<dim>16</dim>
					<dim>-1</dim>
					<dim>64</dim>
				</port>
			</output>
		</layer>
		<layer id="75" name="Parameter_200712" type="Parameter" version="opset1">
			<data shape="?,16,?,64" element_type="f32" />
			<output>
				<port id="0" precision="FP32" names="past_key_values.5.decoder.key">
					<dim>-1</dim>
					<dim>16</dim>
					<dim>-1</dim>
					<dim>64</dim>
				</port>
			</output>
		</layer>
		<layer id="74" name="Parameter_200711" type="Parameter" version="opset1">
			<data shape="?,16,?,64" element_type="f32" />
			<output>
				<port id="0" precision="FP32" names="past_key_values.5.decoder.value">
					<dim>-1</dim>
					<dim>16</dim>
					<dim>-1</dim>
					<dim>64</dim>
				</port>
			</output>
		</layer>
		<layer id="73" name="Parameter_200710" type="Parameter" version="opset1">
			<data shape="?,16,?,64" element_type="f32" />
			<output>
				<port id="0" precision="FP32" names="past_key_values.5.encoder.key">
					<dim>-1</dim>
					<dim>16</dim>
					<dim>-1</dim>
					<dim>64</dim>
				</port>
			</output>
		</layer>
		<layer id="72" name="Parameter_200709" type="Parameter" version="opset1">
			<data shape="?,16,?,64" element_type="f32" />
			<output>
				<port id="0" precision="FP32" names="past_key_values.5.encoder.value">
					<dim>-1</dim>
					<dim>16</dim>
					<dim>-1</dim>
					<dim>64</dim>
				</port>
			</output>
		</layer>
		<layer id="71" name="Parameter_200716" type="Parameter" version="opset1">
			<data shape="?,16,?,64" element_type="f32" />
			<output>
				<port id="0" precision="FP32" names="past_key_values.6.decoder.key">
					<dim>-1</dim>
					<dim>16</dim>
					<dim>-1</dim>
					<dim>64</dim>
				</port>
			</output>
		</layer>
		<layer id="70" name="Parameter_200715" type="Parameter" version="opset1">
			<data shape="?,16,?,64" element_type="f32" />
			<output>
				<port id="0" precision="FP32" names="past_key_values.6.decoder.value">
					<dim>-1</dim>
					<dim>16</dim>
					<dim>-1</dim>
					<dim>64</dim>
				</port>
			</output>
		</layer>
		<layer id="69" name="Parameter_200714" type="Parameter" version="opset1">
			<data shape="?,16,?,64" element_type="f32" />
			<output>
				<port id="0" precision="FP32" names="past_key_values.6.encoder.key">
					<dim>-1</dim>
					<dim>16</dim>
					<dim>-1</dim>
					<dim>64</dim>
				</port>
			</output>
		</layer>
		<layer id="68" name="Parameter_200713" type="Parameter" version="opset1">
			<data shape="?,16,?,64" element_type="f32" />
			<output>
				<port id="0" precision="FP32" names="past_key_values.6.encoder.value">
					<dim>-1</dim>
					<dim>16</dim>
					<dim>-1</dim>
					<dim>64</dim>
				</port>
			</output>
		</layer>
		<layer id="67" name="Parameter_200720" type="Parameter" version="opset1">
			<data shape="?,16,?,64" element_type="f32" />
			<output>
				<port id="0" precision="FP32" names="past_key_values.7.decoder.key">
					<dim>-1</dim>
					<dim>16</dim>
					<dim>-1</dim>
					<dim>64</dim>
				</port>
			</output>
		</layer>
		<layer id="66" name="Parameter_200719" type="Parameter" version="opset1">
			<data shape="?,16,?,64" element_type="f32" />
			<output>
				<port id="0" precision="FP32" names="past_key_values.7.decoder.value">
					<dim>-1</dim>
					<dim>16</dim>
					<dim>-1</dim>
					<dim>64</dim>
				</port>
			</output>
		</layer>
		<layer id="65" name="Parameter_200718" type="Parameter" version="opset1">
			<data shape="?,16,?,64" element_type="f32" />
			<output>
				<port id="0" precision="FP32" names="past_key_values.7.encoder.key">
					<dim>-1</dim>
					<dim>16</dim>
					<dim>-1</dim>
					<dim>64</dim>
				</port>
			</output>
		</layer>
		<layer id="64" name="Parameter_200717" type="Parameter" version="opset1">
			<data shape="?,16,?,64" element_type="f32" />
			<output>
				<port id="0" precision="FP32" names="past_key_values.7.encoder.value">
					<dim>-1</dim>
					<dim>16</dim>
					<dim>-1</dim>
					<dim>64</dim>
				</port>
			</output>
		</layer>
		<layer id="63" name="Parameter_200724" type="Parameter" version="opset1">
			<data shape="?,16,?,64" element_type="f32" />
			<output>
				<port id="0" precision="FP32" names="past_key_values.8.decoder.key">
					<dim>-1</dim>
					<dim>16</dim>
					<dim>-1</dim>
					<dim>64</dim>
				</port>
			</output>
		</layer>
		<layer id="62" name="Parameter_200723" type="Parameter" version="opset1">
			<data shape="?,16,?,64" element_type="f32" />
			<output>
				<port id="0" precision="FP32" names="past_key_values.8.decoder.value">
					<dim>-1</dim>
					<dim>16</dim>
					<dim>-1</dim>
					<dim>64</dim>
				</port>
			</output>
		</layer>
		<layer id="61" name="Parameter_200722" type="Parameter" version="opset1">
			<data shape="?,16,?,64" element_type="f32" />
			<output>
				<port id="0" precision="FP32" names="past_key_values.8.encoder.key">
					<dim>-1</dim>
					<dim>16</dim>
					<dim>-1</dim>
					<dim>64</dim>
				</port>
			</output>
		</layer>
		<layer id="60" name="Parameter_200721" type="Parameter" version="opset1">
			<data shape="?,16,?,64" element_type="f32" />
			<output>
				<port id="0" precision="FP32" names="past_key_values.8.encoder.value">
					<dim>-1</dim>
					<dim>16</dim>
					<dim>-1</dim>
					<dim>64</dim>
				</port>
			</output>
		</layer>
		<layer id="59" name="Parameter_200728" type="Parameter" version="opset1">
			<data shape="?,16,?,64" element_type="f32" />
			<output>
				<port id="0" precision="FP32" names="past_key_values.9.decoder.key">
					<dim>-1</dim>
					<dim>16</dim>
					<dim>-1</dim>
					<dim>64</dim>
				</port>
			</output>
		</layer>
		<layer id="58" name="Parameter_200727" type="Parameter" version="opset1">
			<data shape="?,16,?,64" element_type="f32" />
			<output>
				<port id="0" precision="FP32" names="past_key_values.9.decoder.value">
					<dim>-1</dim>
					<dim>16</dim>
					<dim>-1</dim>
					<dim>64</dim>
				</port>
			</output>
		</layer>
		<layer id="57" name="Parameter_200726" type="Parameter" version="opset1">
			<data shape="?,16,?,64" element_type="f32" />
			<output>
				<port id="0" precision="FP32" names="past_key_values.9.encoder.key">
					<dim>-1</dim>
					<dim>16</dim>
					<dim>-1</dim>
					<dim>64</dim>
				</port>
			</output>
		</layer>
		<layer id="56" name="Parameter_200725" type="Parameter" version="opset1">
			<data shape="?,16,?,64" element_type="f32" />
			<output>
				<port id="0" precision="FP32" names="past_key_values.9.encoder.value">
					<dim>-1</dim>
					<dim>16</dim>
					<dim>-1</dim>
					<dim>64</dim>
				</port>
			</output>
		</layer>
		<layer id="55" name="Parameter_200732" type="Parameter" version="opset1">
			<data shape="?,16,?,64" element_type="f32" />
			<output>
				<port id="0" precision="FP32" names="past_key_values.10.decoder.key">
					<dim>-1</dim>
					<dim>16</dim>
					<dim>-1</dim>
					<dim>64</dim>
				</port>
			</output>
		</layer>
		<layer id="54" name="Parameter_200731" type="Parameter" version="opset1">
			<data shape="?,16,?,64" element_type="f32" />
			<output>
				<port id="0" precision="FP32" names="past_key_values.10.decoder.value">
					<dim>-1</dim>
					<dim>16</dim>
					<dim>-1</dim>
					<dim>64</dim>
				</port>
			</output>
		</layer>
		<layer id="53" name="Parameter_200730" type="Parameter" version="opset1">
			<data shape="?,16,?,64" element_type="f32" />
			<output>
				<port id="0" precision="FP32" names="past_key_values.10.encoder.key">
					<dim>-1</dim>
					<dim>16</dim>
					<dim>-1</dim>
					<dim>64</dim>
				</port>
			</output>
		</layer>
		<layer id="52" name="Parameter_200729" type="Parameter" version="opset1">
			<data shape="?,16,?,64" element_type="f32" />
			<output>
				<port id="0" precision="FP32" names="past_key_values.10.encoder.value">
					<dim>-1</dim>
					<dim>16</dim>
					<dim>-1</dim>
					<dim>64</dim>
				</port>
			</output>
		</layer>
		<layer id="51" name="Parameter_200736" type="Parameter" version="opset1">
			<data shape="?,16,?,64" element_type="f32" />
			<output>
				<port id="0" precision="FP32" names="past_key_values.11.decoder.key">
					<dim>-1</dim>
					<dim>16</dim>
					<dim>-1</dim>
					<dim>64</dim>
				</port>
			</output>
		</layer>
		<layer id="50" name="Parameter_200735" type="Parameter" version="opset1">
			<data shape="?,16,?,64" element_type="f32" />
			<output>
				<port id="0" precision="FP32" names="past_key_values.11.decoder.value">
					<dim>-1</dim>
					<dim>16</dim>
					<dim>-1</dim>
					<dim>64</dim>
				</port>
			</output>
		</layer>
		<layer id="49" name="Parameter_200734" type="Parameter" version="opset1">
			<data shape="?,16,?,64" element_type="f32" />
			<output>
				<port id="0" precision="FP32" names="past_key_values.11.encoder.key">
					<dim>-1</dim>
					<dim>16</dim>
					<dim>-1</dim>
					<dim>64</dim>
				</port>
			</output>
		</layer>
		<layer id="48" name="Parameter_200733" type="Parameter" version="opset1">
			<data shape="?,16,?,64" element_type="f32" />
			<output>
				<port id="0" precision="FP32" names="past_key_values.11.encoder.value">
					<dim>-1</dim>
					<dim>16</dim>
					<dim>-1</dim>
					<dim>64</dim>
				</port>
			</output>
		</layer>
		<layer id="47" name="Parameter_200740" type="Parameter" version="opset1">
			<data shape="?,16,?,64" element_type="f32" />
			<output>
				<port id="0" precision="FP32" names="past_key_values.12.decoder.key">
					<dim>-1</dim>
					<dim>16</dim>
					<dim>-1</dim>
					<dim>64</dim>
				</port>
			</output>
		</layer>
		<layer id="46" name="Parameter_200739" type="Parameter" version="opset1">
			<data shape="?,16,?,64" element_type="f32" />
			<output>
				<port id="0" precision="FP32" names="past_key_values.12.decoder.value">
					<dim>-1</dim>
					<dim>16</dim>
					<dim>-1</dim>
					<dim>64</dim>
				</port>
			</output>
		</layer>
		<layer id="45" name="Parameter_200738" type="Parameter" version="opset1">
			<data shape="?,16,?,64" element_type="f32" />
			<output>
				<port id="0" precision="FP32" names="past_key_values.12.encoder.key">
					<dim>-1</dim>
					<dim>16</dim>
					<dim>-1</dim>
					<dim>64</dim>
				</port>
			</output>
		</layer>
		<layer id="44" name="Parameter_200737" type="Parameter" version="opset1">
			<data shape="?,16,?,64" element_type="f32" />
			<output>
				<port id="0" precision="FP32" names="past_key_values.12.encoder.value">
					<dim>-1</dim>
					<dim>16</dim>
					<dim>-1</dim>
					<dim>64</dim>
				</port>
			</output>
		</layer>
		<layer id="43" name="Parameter_200744" type="Parameter" version="opset1">
			<data shape="?,16,?,64" element_type="f32" />
			<output>
				<port id="0" precision="FP32" names="past_key_values.13.decoder.key">
					<dim>-1</dim>
					<dim>16</dim>
					<dim>-1</dim>
					<dim>64</dim>
				</port>
			</output>
		</layer>
		<layer id="42" name="Parameter_200743" type="Parameter" version="opset1">
			<data shape="?,16,?,64" element_type="f32" />
			<output>
				<port id="0" precision="FP32" names="past_key_values.13.decoder.value">
					<dim>-1</dim>
					<dim>16</dim>
					<dim>-1</dim>
					<dim>64</dim>
				</port>
			</output>
		</layer>
		<layer id="41" name="Parameter_200742" type="Parameter" version="opset1">
			<data shape="?,16,?,64" element_type="f32" />
			<output>
				<port id="0" precision="FP32" names="past_key_values.13.encoder.key">
					<dim>-1</dim>
					<dim>16</dim>
					<dim>-1</dim>
					<dim>64</dim>
				</port>
			</output>
		</layer>
		<layer id="40" name="Parameter_200741" type="Parameter" version="opset1">
			<data shape="?,16,?,64" element_type="f32" />
			<output>
				<port id="0" precision="FP32" names="past_key_values.13.encoder.value">
					<dim>-1</dim>
					<dim>16</dim>
					<dim>-1</dim>
					<dim>64</dim>
				</port>
			</output>
		</layer>
		<layer id="39" name="Parameter_200748" type="Parameter" version="opset1">
			<data shape="?,16,?,64" element_type="f32" />
			<output>
				<port id="0" precision="FP32" names="past_key_values.14.decoder.key">
					<dim>-1</dim>
					<dim>16</dim>
					<dim>-1</dim>
					<dim>64</dim>
				</port>
			</output>
		</layer>
		<layer id="38" name="Parameter_200747" type="Parameter" version="opset1">
			<data shape="?,16,?,64" element_type="f32" />
			<output>
				<port id="0" precision="FP32" names="past_key_values.14.decoder.value">
					<dim>-1</dim>
					<dim>16</dim>
					<dim>-1</dim>
					<dim>64</dim>
				</port>
			</output>
		</layer>
		<layer id="37" name="Parameter_200746" type="Parameter" version="opset1">
			<data shape="?,16,?,64" element_type="f32" />
			<output>
				<port id="0" precision="FP32" names="past_key_values.14.encoder.key">
					<dim>-1</dim>
					<dim>16</dim>
					<dim>-1</dim>
					<dim>64</dim>
				</port>
			</output>
		</layer>
		<layer id="36" name="Parameter_200745" type="Parameter" version="opset1">
			<data shape="?,16,?,64" element_type="f32" />
			<output>
				<port id="0" precision="FP32" names="past_key_values.14.encoder.value">
					<dim>-1</dim>
					<dim>16</dim>
					<dim>-1</dim>
					<dim>64</dim>
				</port>
			</output>
		</layer>
		<layer id="35" name="Parameter_200752" type="Parameter" version="opset1">
			<data shape="?,16,?,64" element_type="f32" />
			<output>
				<port id="0" precision="FP32" names="past_key_values.15.decoder.key">
					<dim>-1</dim>
					<dim>16</dim>
					<dim>-1</dim>
					<dim>64</dim>
				</port>
			</output>
		</layer>
		<layer id="34" name="Parameter_200751" type="Parameter" version="opset1">
			<data shape="?,16,?,64" element_type="f32" />
			<output>
				<port id="0" precision="FP32" names="past_key_values.15.decoder.value">
					<dim>-1</dim>
					<dim>16</dim>
					<dim>-1</dim>
					<dim>64</dim>
				</port>
			</output>
		</layer>
		<layer id="33" name="Parameter_200750" type="Parameter" version="opset1">
			<data shape="?,16,?,64" element_type="f32" />
			<output>
				<port id="0" precision="FP32" names="past_key_values.15.encoder.key">
					<dim>-1</dim>
					<dim>16</dim>
					<dim>-1</dim>
					<dim>64</dim>
				</port>
			</output>
		</layer>
		<layer id="32" name="Parameter_200749" type="Parameter" version="opset1">
			<data shape="?,16,?,64" element_type="f32" />
			<output>
				<port id="0" precision="FP32" names="past_key_values.15.encoder.value">
					<dim>-1</dim>
					<dim>16</dim>
					<dim>-1</dim>
					<dim>64</dim>
				</port>
			</output>
		</layer>
		<layer id="31" name="Parameter_200756" type="Parameter" version="opset1">
			<data shape="?,16,?,64" element_type="f32" />
			<output>
				<port id="0" precision="FP32" names="past_key_values.16.decoder.key">
					<dim>-1</dim>
					<dim>16</dim>
					<dim>-1</dim>
					<dim>64</dim>
				</port>
			</output>
		</layer>
		<layer id="30" name="Parameter_200755" type="Parameter" version="opset1">
			<data shape="?,16,?,64" element_type="f32" />
			<output>
				<port id="0" precision="FP32" names="past_key_values.16.decoder.value">
					<dim>-1</dim>
					<dim>16</dim>
					<dim>-1</dim>
					<dim>64</dim>
				</port>
			</output>
		</layer>
		<layer id="29" name="Parameter_200754" type="Parameter" version="opset1">
			<data shape="?,16,?,64" element_type="f32" />
			<output>
				<port id="0" precision="FP32" names="past_key_values.16.encoder.key">
					<dim>-1</dim>
					<dim>16</dim>
					<dim>-1</dim>
					<dim>64</dim>
				</port>
			</output>
		</layer>
		<layer id="28" name="Parameter_200753" type="Parameter" version="opset1">
			<data shape="?,16,?,64" element_type="f32" />
			<output>
				<port id="0" precision="FP32" names="past_key_values.16.encoder.value">
					<dim>-1</dim>
					<dim>16</dim>
					<dim>-1</dim>
					<dim>64</dim>
				</port>
			</output>
		</layer>
		<layer id="27" name="Parameter_200760" type="Parameter" version="opset1">
			<data shape="?,16,?,64" element_type="f32" />
			<output>
				<port id="0" precision="FP32" names="past_key_values.17.decoder.key">
					<dim>-1</dim>
					<dim>16</dim>
					<dim>-1</dim>
					<dim>64</dim>
				</port>
			</output>
		</layer>
		<layer id="26" name="Parameter_200759" type="Parameter" version="opset1">
			<data shape="?,16,?,64" element_type="f32" />
			<output>
				<port id="0" precision="FP32" names="past_key_values.17.decoder.value">
					<dim>-1</dim>
					<dim>16</dim>
					<dim>-1</dim>
					<dim>64</dim>
				</port>
			</output>
		</layer>
		<layer id="25" name="Parameter_200758" type="Parameter" version="opset1">
			<data shape="?,16,?,64" element_type="f32" />
			<output>
				<port id="0" precision="FP32" names="past_key_values.17.encoder.key">
					<dim>-1</dim>
					<dim>16</dim>
					<dim>-1</dim>
					<dim>64</dim>
				</port>
			</output>
		</layer>
		<layer id="24" name="Parameter_200757" type="Parameter" version="opset1">
			<data shape="?,16,?,64" element_type="f32" />
			<output>
				<port id="0" precision="FP32" names="past_key_values.17.encoder.value">
					<dim>-1</dim>
					<dim>16</dim>
					<dim>-1</dim>
					<dim>64</dim>
				</port>
			</output>
		</layer>
		<layer id="23" name="Parameter_200764" type="Parameter" version="opset1">
			<data shape="?,16,?,64" element_type="f32" />
			<output>
				<port id="0" precision="FP32" names="past_key_values.18.decoder.key">
					<dim>-1</dim>
					<dim>16</dim>
					<dim>-1</dim>
					<dim>64</dim>
				</port>
			</output>
		</layer>
		<layer id="22" name="Parameter_200763" type="Parameter" version="opset1">
			<data shape="?,16,?,64" element_type="f32" />
			<output>
				<port id="0" precision="FP32" names="past_key_values.18.decoder.value">
					<dim>-1</dim>
					<dim>16</dim>
					<dim>-1</dim>
					<dim>64</dim>
				</port>
			</output>
		</layer>
		<layer id="21" name="Parameter_200762" type="Parameter" version="opset1">
			<data shape="?,16,?,64" element_type="f32" />
			<output>
				<port id="0" precision="FP32" names="past_key_values.18.encoder.key">
					<dim>-1</dim>
					<dim>16</dim>
					<dim>-1</dim>
					<dim>64</dim>
				</port>
			</output>
		</layer>
		<layer id="20" name="Parameter_200761" type="Parameter" version="opset1">
			<data shape="?,16,?,64" element_type="f32" />
			<output>
				<port id="0" precision="FP32" names="past_key_values.18.encoder.value">
					<dim>-1</dim>
					<dim>16</dim>
					<dim>-1</dim>
					<dim>64</dim>
				</port>
			</output>
		</layer>
		<layer id="19" name="Parameter_200768" type="Parameter" version="opset1">
			<data shape="?,16,?,64" element_type="f32" />
			<output>
				<port id="0" precision="FP32" names="past_key_values.19.decoder.key">
					<dim>-1</dim>
					<dim>16</dim>
					<dim>-1</dim>
					<dim>64</dim>
				</port>
			</output>
		</layer>
		<layer id="18" name="Parameter_200767" type="Parameter" version="opset1">
			<data shape="?,16,?,64" element_type="f32" />
			<output>
				<port id="0" precision="FP32" names="past_key_values.19.decoder.value">
					<dim>-1</dim>
					<dim>16</dim>
					<dim>-1</dim>
					<dim>64</dim>
				</port>
			</output>
		</layer>
		<layer id="17" name="Parameter_200766" type="Parameter" version="opset1">
			<data shape="?,16,?,64" element_type="f32" />
			<output>
				<port id="0" precision="FP32" names="past_key_values.19.encoder.key">
					<dim>-1</dim>
					<dim>16</dim>
					<dim>-1</dim>
					<dim>64</dim>
				</port>
			</output>
		</layer>
		<layer id="16" name="Parameter_200765" type="Parameter" version="opset1">
			<data shape="?,16,?,64" element_type="f32" />
			<output>
				<port id="0" precision="FP32" names="past_key_values.19.encoder.value">
					<dim>-1</dim>
					<dim>16</dim>
					<dim>-1</dim>
					<dim>64</dim>
				</port>
			</output>
		</layer>
		<layer id="15" name="Parameter_200772" type="Parameter" version="opset1">
			<data shape="?,16,?,64" element_type="f32" />
			<output>
				<port id="0" precision="FP32" names="past_key_values.20.decoder.key">
					<dim>-1</dim>
					<dim>16</dim>
					<dim>-1</dim>
					<dim>64</dim>
				</port>
			</output>
		</layer>
		<layer id="14" name="Parameter_200771" type="Parameter" version="opset1">
			<data shape="?,16,?,64" element_type="f32" />
			<output>
				<port id="0" precision="FP32" names="past_key_values.20.decoder.value">
					<dim>-1</dim>
					<dim>16</dim>
					<dim>-1</dim>
					<dim>64</dim>
				</port>
			</output>
		</layer>
		<layer id="13" name="Parameter_200770" type="Parameter" version="opset1">
			<data shape="?,16,?,64" element_type="f32" />
			<output>
				<port id="0" precision="FP32" names="past_key_values.20.encoder.key">
					<dim>-1</dim>
					<dim>16</dim>
					<dim>-1</dim>
					<dim>64</dim>
				</port>
			</output>
		</layer>
		<layer id="12" name="Parameter_200769" type="Parameter" version="opset1">
			<data shape="?,16,?,64" element_type="f32" />
			<output>
				<port id="0" precision="FP32" names="past_key_values.20.encoder.value">
					<dim>-1</dim>
					<dim>16</dim>
					<dim>-1</dim>
					<dim>64</dim>
				</port>
			</output>
		</layer>
		<layer id="11" name="Parameter_200776" type="Parameter" version="opset1">
			<data shape="?,16,?,64" element_type="f32" />
			<output>
				<port id="0" precision="FP32" names="past_key_values.21.decoder.key">
					<dim>-1</dim>
					<dim>16</dim>
					<dim>-1</dim>
					<dim>64</dim>
				</port>
			</output>
		</layer>
		<layer id="10" name="Parameter_200775" type="Parameter" version="opset1">
			<data shape="?,16,?,64" element_type="f32" />
			<output>
				<port id="0" precision="FP32" names="past_key_values.21.decoder.value">
					<dim>-1</dim>
					<dim>16</dim>
					<dim>-1</dim>
					<dim>64</dim>
				</port>
			</output>
		</layer>
		<layer id="9" name="Parameter_200774" type="Parameter" version="opset1">
			<data shape="?,16,?,64" element_type="f32" />
			<output>
				<port id="0" precision="FP32" names="past_key_values.21.encoder.key">
					<dim>-1</dim>
					<dim>16</dim>
					<dim>-1</dim>
					<dim>64</dim>
				</port>
			</output>
		</layer>
		<layer id="8" name="Parameter_200773" type="Parameter" version="opset1">
			<data shape="?,16,?,64" element_type="f32" />
			<output>
				<port id="0" precision="FP32" names="past_key_values.21.encoder.value">
					<dim>-1</dim>
					<dim>16</dim>
					<dim>-1</dim>
					<dim>64</dim>
				</port>
			</output>
		</layer>
		<layer id="7" name="Parameter_200780" type="Parameter" version="opset1">
			<data shape="?,16,?,64" element_type="f32" />
			<output>
				<port id="0" precision="FP32" names="past_key_values.22.decoder.key">
					<dim>-1</dim>
					<dim>16</dim>
					<dim>-1</dim>
					<dim>64</dim>
				</port>
			</output>
		</layer>
		<layer id="6" name="Parameter_200779" type="Parameter" version="opset1">
			<data shape="?,16,?,64" element_type="f32" />
			<output>
				<port id="0" precision="FP32" names="past_key_values.22.decoder.value">
					<dim>-1</dim>
					<dim>16</dim>
					<dim>-1</dim>
					<dim>64</dim>
				</port>
			</output>
		</layer>
		<layer id="5" name="Parameter_200778" type="Parameter" version="opset1">
			<data shape="?,16,?,64" element_type="f32" />
			<output>
				<port id="0" precision="FP32" names="past_key_values.22.encoder.key">
					<dim>-1</dim>
					<dim>16</dim>
					<dim>-1</dim>
					<dim>64</dim>
				</port>
			</output>
		</layer>
		<layer id="4" name="Parameter_200777" type="Parameter" version="opset1">
			<data shape="?,16,?,64" element_type="f32" />
			<output>
				<port id="0" precision="FP32" names="past_key_values.22.encoder.value">
					<dim>-1</dim>
					<dim>16</dim>
					<dim>-1</dim>
					<dim>64</dim>
				</port>
			</output>
		</layer>
		<layer id="3" name="Parameter_200784" type="Parameter" version="opset1">
			<data shape="?,16,?,64" element_type="f32" />
			<output>
				<port id="0" precision="FP32" names="past_key_values.23.decoder.key">
					<dim>-1</dim>
					<dim>16</dim>
					<dim>-1</dim>
					<dim>64</dim>
				</port>
			</output>
		</layer>
		<layer id="2" name="Parameter_200783" type="Parameter" version="opset1">
			<data shape="?,16,?,64" element_type="f32" />
			<output>
				<port id="0" precision="FP32" names="past_key_values.23.decoder.value">
					<dim>-1</dim>
					<dim>16</dim>
					<dim>-1</dim>
					<dim>64</dim>
				</port>
			</output>
		</layer>
		<layer id="1" name="Parameter_200782" type="Parameter" version="opset1">
			<data shape="?,16,?,64" element_type="f32" />
			<output>
				<port id="0" precision="FP32" names="past_key_values.23.encoder.key">
					<dim>-1</dim>
					<dim>16</dim>
					<dim>-1</dim>
					<dim>64</dim>
				</port>
			</output>
		</layer>
		<layer id="0" name="Parameter_200781" type="Parameter" version="opset1">
			<data shape="?,16,?,64" element_type="f32" />
			<output>
				<port id="0" precision="FP32" names="past_key_values.23.encoder.value">
					<dim>-1</dim>
					<dim>16</dim>
					<dim>-1</dim>
					<dim>64</dim>
				</port>
			</output>
		</layer>
		<layer id="99" name="Constant_264722" type="Const" version="opset1">
			<data element_type="f32" shape="1, 1, 1024" offset="0" size="4096" />
			<output>
				<port id="0" precision="FP32">
					<dim>1</dim>
					<dim>1</dim>
					<dim>1024</dim>
				</port>
			</output>
		</layer>
		<layer id="100" name="Constant_483881" type="Const" version="opset1">
			<data element_type="i8" shape="32128, 1024" offset="4096" size="32899072" />
			<output>
				<port id="0" precision="I8">
					<dim>32128</dim>
					<dim>1024</dim>
				</port>
			</output>
		</layer>
		<layer id="101" name="Convert_483882" type="Convert" version="opset1">
			<data destination_type="f32" />
			<input>
				<port id="0" precision="I8">
					<dim>32128</dim>
					<dim>1024</dim>
				</port>
			</input>
			<output>
				<port id="1" precision="FP32">
					<dim>32128</dim>
					<dim>1024</dim>
				</port>
			</output>
		</layer>
		<layer id="102" name="Constant_483883" type="Const" version="opset1">
			<data element_type="f32" shape="32128, 1" offset="32903168" size="128512" />
			<output>
				<port id="0" precision="FP32">
					<dim>32128</dim>
					<dim>1</dim>
				</port>
			</output>
		</layer>
		<layer id="103" name="__module.model.decoder.embed_tokens/aten::embedding/Gather/fq_weights_0" type="Multiply" version="opset1">
			<data auto_broadcast="numpy" />
			<input>
				<port id="0" precision="FP32">
					<dim>32128</dim>
					<dim>1024</dim>
				</port>
				<port id="1" precision="FP32">
					<dim>32128</dim>
					<dim>1</dim>
				</port>
			</input>
			<output>
				<port id="2" precision="FP32">
					<dim>32128</dim>
					<dim>1024</dim>
				</port>
			</output>
		</layer>
		<layer id="104" name="Constant_265676" type="Const" version="opset1">
			<data element_type="i64" shape="2" offset="33031680" size="16" />
			<output>
				<port id="0" precision="I64">
					<dim>2</dim>
				</port>
			</output>
		</layer>
		<layer id="105" name="__module.model.decoder/aten::view/Reshape" type="Reshape" version="opset1">
			<data special_zero="true" />
			<input>
				<port id="0" precision="I64">
					<dim>-1</dim>
					<dim>-1</dim>
				</port>
				<port id="1" precision="I64">
					<dim>2</dim>
				</port>
			</input>
			<output>
				<port id="2" precision="I64" names="284">
					<dim>-1</dim>
					<dim>-1</dim>
				</port>
			</output>
		</layer>
		<layer id="106" name="__module.model.decoder.embed_tokens/aten::embedding/Convert" type="Convert" version="opset1">
			<data destination_type="i32" />
			<input>
				<port id="0" precision="I64">
					<dim>-1</dim>
					<dim>-1</dim>
				</port>
			</input>
			<output>
				<port id="1" precision="I32">
					<dim>-1</dim>
					<dim>-1</dim>
				</port>
			</output>
		</layer>
		<layer id="107" name="__module.model.decoder.embed_tokens/aten::embedding/Constant" type="Const" version="opset1">
			<data element_type="i32" shape="" offset="33031696" size="4" />
			<output>
				<port id="0" precision="I32" />
			</output>
		</layer>
		<layer id="108" name="__module.model.decoder.embed_tokens/aten::embedding/Gather" type="Gather" version="opset8">
			<data batch_dims="0" />
			<input>
				<port id="0" precision="FP32">
					<dim>32128</dim>
					<dim>1024</dim>
				</port>
				<port id="1" precision="I32">
					<dim>-1</dim>
					<dim>-1</dim>
				</port>
				<port id="2" precision="I32" />
			</input>
			<output>
				<port id="3" precision="FP32" names="285,342,352,hidden_states.3,input.1">
					<dim>-1</dim>
					<dim>-1</dim>
					<dim>1024</dim>
				</port>
			</output>
		</layer>
		<layer id="109" name="Constant_264434" type="Const" version="opset1">
			<data element_type="f32" shape="1, 1, 1024" offset="33031700" size="4096" />
			<output>
				<port id="0" precision="FP32">
					<dim>1</dim>
					<dim>1</dim>
					<dim>1024</dim>
				</port>
			</output>
		</layer>
		<layer id="110" name="Constant_264433" type="Const" version="opset1">
			<data element_type="f32" shape="1, 1, 1" offset="33035796" size="4" />
			<output>
				<port id="0" precision="FP32">
					<dim>1</dim>
					<dim>1</dim>
					<dim>1</dim>
				</port>
			</output>
		</layer>
		<layer id="111" name="Constant_264431" type="Const" version="opset1">
			<data element_type="f32" shape="1, 1, 1" offset="33035800" size="4" />
			<output>
				<port id="0" precision="FP32">
					<dim>1</dim>
					<dim>1</dim>
					<dim>1</dim>
				</port>
			</output>
		</layer>
		<layer id="112" name="__module.model.decoder.block.0.layer.0.layer_norm/aten::pow/Power" type="Power" version="opset1">
			<data auto_broadcast="numpy" />
			<input>
				<port id="0" precision="FP32">
					<dim>-1</dim>
					<dim>-1</dim>
					<dim>1024</dim>
				</port>
				<port id="1" precision="FP32">
					<dim>1</dim>
					<dim>1</dim>
					<dim>1</dim>
				</port>
			</input>
			<output>
				<port id="2" precision="FP32" names="343">
					<dim>-1</dim>
					<dim>-1</dim>
					<dim>1024</dim>
				</port>
			</output>
		</layer>
		<layer id="113" name="Constant_173774" type="Const" version="opset1">
			<data element_type="i64" shape="1" offset="33035804" size="8" />
			<output>
				<port id="0" precision="I64" names="344">
					<dim>1</dim>
				</port>
			</output>
		</layer>
		<layer id="114" name="__module.model.decoder.block.0.layer.0.layer_norm/aten::mean/ReduceMean" type="ReduceMean" version="opset1">
			<data keep_dims="true" />
			<input>
				<port id="0" precision="FP32">
					<dim>-1</dim>
					<dim>-1</dim>
					<dim>1024</dim>
				</port>
				<port id="1" precision="I64">
					<dim>1</dim>
				</port>
			</input>
			<output>
				<port id="2" precision="FP32" names="345,variance.1">
					<dim>-1</dim>
					<dim>-1</dim>
					<dim>1</dim>
				</port>
			</output>
		</layer>
		<layer id="115" name="Constant_264432" type="Const" version="opset1">
			<data element_type="f32" shape="1, 1, 1" offset="33035812" size="4" />
			<output>
				<port id="0" precision="FP32">
					<dim>1</dim>
					<dim>1</dim>
					<dim>1</dim>
				</port>
			</output>
		</layer>
		<layer id="116" name="__module.model.decoder.block.0.layer.0.layer_norm/aten::add/Add" type="Add" version="opset1">
			<data auto_broadcast="numpy" />
			<input>
				<port id="0" precision="FP32">
					<dim>-1</dim>
					<dim>-1</dim>
					<dim>1</dim>
				</port>
				<port id="1" precision="FP32">
					<dim>1</dim>
					<dim>1</dim>
					<dim>1</dim>
				</port>
			</input>
			<output>
				<port id="2" precision="FP32" names="346">
					<dim>-1</dim>
					<dim>-1</dim>
					<dim>1</dim>
				</port>
			</output>
		</layer>
		<layer id="117" name="__module.model.decoder.block.0.layer.0.layer_norm/aten::rsqrt/Sqrt" type="Sqrt" version="opset1">
			<input>
				<port id="0" precision="FP32">
					<dim>-1</dim>
					<dim>-1</dim>
					<dim>1</dim>
				</port>
			</input>
			<output>
				<port id="1" precision="FP32">
					<dim>-1</dim>
					<dim>-1</dim>
					<dim>1</dim>
				</port>
			</output>
		</layer>
		<layer id="118" name="__module.model.decoder.block.0.layer.0.layer_norm/aten::rsqrt/Divide" type="Divide" version="opset1">
			<data auto_broadcast="numpy" m_pythondiv="true" />
			<input>
				<port id="0" precision="FP32">
					<dim>1</dim>
					<dim>1</dim>
					<dim>1</dim>
				</port>
				<port id="1" precision="FP32">
					<dim>-1</dim>
					<dim>-1</dim>
					<dim>1</dim>
				</port>
			</input>
			<output>
				<port id="2" precision="FP32" names="347">
					<dim>-1</dim>
					<dim>-1</dim>
					<dim>1</dim>
				</port>
			</output>
		</layer>
		<layer id="119" name="__module.model.decoder.block.0.layer.0.layer_norm/aten::mul/Multiply" type="Multiply" version="opset1">
			<data auto_broadcast="numpy" />
			<input>
				<port id="0" precision="FP32">
					<dim>-1</dim>
					<dim>-1</dim>
					<dim>1024</dim>
				</port>
				<port id="1" precision="FP32">
					<dim>-1</dim>
					<dim>-1</dim>
					<dim>1</dim>
				</port>
			</input>
			<output>
				<port id="2" precision="FP32" names="348,hidden_states.5">
					<dim>-1</dim>
					<dim>-1</dim>
					<dim>1024</dim>
				</port>
			</output>
		</layer>
		<layer id="120" name="__module.model.decoder.block.0.layer.0.layer_norm/aten::mul/Multiply_1" type="Multiply" version="opset1">
			<data auto_broadcast="numpy" />
			<input>
				<port id="0" precision="FP32">
					<dim>1</dim>
					<dim>1</dim>
					<dim>1024</dim>
				</port>
				<port id="1" precision="FP32">
					<dim>-1</dim>
					<dim>-1</dim>
					<dim>1024</dim>
				</port>
			</input>
			<output>
				<port id="2" precision="FP32" names="349,351,hidden_states.7">
					<dim>-1</dim>
					<dim>-1</dim>
					<dim>1024</dim>
				</port>
			</output>
		</layer>
		<layer id="121" name="__module.model.decoder.block.0.layer.0.layer_norm/aten::mul/Multiply_1_0_0/nncf_smooth_quant/scale" type="Const" version="opset1">
			<data element_type="f32" shape="1, 1, 1024" offset="33035816" size="4096" />
			<output>
				<port id="0" precision="FP32">
					<dim>1</dim>
					<dim>1</dim>
					<dim>1024</dim>
				</port>
			</output>
		</layer>
		<layer id="122" name="__module.model.decoder.block.0.layer.0.layer_norm/aten::mul/Multiply_1_0_0/nncf_smooth_quant" type="Multiply" version="opset1">
			<data auto_broadcast="numpy" />
			<input>
				<port id="0" precision="FP32">
					<dim>-1</dim>
					<dim>-1</dim>
					<dim>1024</dim>
				</port>
				<port id="1" precision="FP32">
					<dim>1</dim>
					<dim>1</dim>
					<dim>1024</dim>
				</port>
			</input>
			<output>
				<port id="2" precision="FP32">
					<dim>-1</dim>
					<dim>-1</dim>
					<dim>1024</dim>
				</port>
			</output>
		</layer>
		<layer id="123" name="__module.model.decoder.block.0.layer.0.layer_norm/aten::mul/Multiply_1_0_0/nncf_smooth_quant/fq_output_0/input_low" type="Const" version="opset1">
			<data element_type="f32" shape="" offset="33039912" size="4" />
			<output>
				<port id="0" precision="FP32" />
			</output>
		</layer>
		<layer id="124" name="__module.model.decoder.block.0.layer.0.layer_norm/aten::mul/Multiply_1_0_0/nncf_smooth_quant/fq_output_0/input_high" type="Const" version="opset1">
			<data element_type="f32" shape="" offset="33039916" size="4" />
			<output>
				<port id="0" precision="FP32" />
			</output>
		</layer>
		<layer id="125" name="__module.model.decoder.block.0.layer.0.layer_norm/aten::mul/Multiply_1_0_0/nncf_smooth_quant/fq_output_0/output_low" type="Const" version="opset1">
			<data element_type="f32" shape="" offset="33039912" size="4" />
			<output>
				<port id="0" precision="FP32" />
			</output>
		</layer>
		<layer id="126" name="__module.model.decoder.block.0.layer.0.layer_norm/aten::mul/Multiply_1_0_0/nncf_smooth_quant/fq_output_0/output_high" type="Const" version="opset1">
			<data element_type="f32" shape="" offset="33039916" size="4" />
			<output>
				<port id="0" precision="FP32" />
			</output>
		</layer>
		<layer id="127" name="__module.model.decoder.block.0.layer.0.layer_norm/aten::mul/Multiply_1_0_0/nncf_smooth_quant/fq_output_0" type="FakeQuantize" version="opset1">
			<data levels="256" auto_broadcast="numpy" />
			<input>
				<port id="0" precision="FP32">
					<dim>-1</dim>
					<dim>-1</dim>
					<dim>1024</dim>
				</port>
				<port id="1" precision="FP32" />
				<port id="2" precision="FP32" />
				<port id="3" precision="FP32" />
				<port id="4" precision="FP32" />
			</input>
			<output>
				<port id="5" precision="FP32">
					<dim>-1</dim>
					<dim>-1</dim>
					<dim>1024</dim>
				</port>
			</output>
		</layer>
		<layer id="128" name="Constant_483885" type="Const" version="opset1">
			<data element_type="i8" shape="1024, 1024" offset="33039920" size="1048576" />
			<output>
				<port id="0" precision="I8">
					<dim>1024</dim>
					<dim>1024</dim>
				</port>
			</output>
		</layer>
		<layer id="129" name="Convert_483886" type="Convert" version="opset1">
			<data destination_type="f32" />
			<input>
				<port id="0" precision="I8">
					<dim>1024</dim>
					<dim>1024</dim>
				</port>
			</input>
			<output>
				<port id="1" precision="FP32">
					<dim>1024</dim>
					<dim>1024</dim>
				</port>
			</output>
		</layer>
		<layer id="130" name="Constant_483887" type="Const" version="opset1">
			<data element_type="f32" shape="1024, 1" offset="34088496" size="4096" />
			<output>
				<port id="0" precision="FP32">
					<dim>1024</dim>
					<dim>1</dim>
				</port>
			</output>
		</layer>
		<layer id="131" name="__module.model.decoder.block.0.layer.0.SelfAttention.q/aten::linear/MatMul/fq_weights_1" type="Multiply" version="opset1">
			<data auto_broadcast="numpy" />
			<input>
				<port id="0" precision="FP32">
					<dim>1024</dim>
					<dim>1024</dim>
				</port>
				<port id="1" precision="FP32">
					<dim>1024</dim>
					<dim>1</dim>
				</port>
			</input>
			<output>
				<port id="2" precision="FP32">
					<dim>1024</dim>
					<dim>1024</dim>
				</port>
			</output>
		</layer>
		<layer id="132" name="__module.model.decoder.block.0.layer.0.SelfAttention.q/aten::linear/MatMul" type="MatMul" version="opset1">
			<data transpose_a="false" transpose_b="true" />
			<input>
				<port id="0" precision="FP32">
					<dim>-1</dim>
					<dim>-1</dim>
					<dim>1024</dim>
				</port>
				<port id="1" precision="FP32">
					<dim>1024</dim>
					<dim>1024</dim>
				</port>
			</input>
			<output>
				<port id="2" precision="FP32" names="367,states.1">
					<dim>-1</dim>
					<dim>-1</dim>
					<dim>1024</dim>
				</port>
			</output>
		</layer>
		<layer id="133" name="__module.model.decoder.block.0.layer.0.SelfAttention.q/aten::linear/MatMul/fq_output_0/input_low" type="Const" version="opset1">
			<data element_type="f32" shape="" offset="34092592" size="4" />
			<output>
				<port id="0" precision="FP32" />
			</output>
		</layer>
		<layer id="134" name="__module.model.decoder.block.0.layer.0.SelfAttention.q/aten::linear/MatMul/fq_output_0/input_high" type="Const" version="opset1">
			<data element_type="f32" shape="" offset="34092596" size="4" />
			<output>
				<port id="0" precision="FP32" />
			</output>
		</layer>
		<layer id="135" name="__module.model.decoder.block.0.layer.0.SelfAttention.q/aten::linear/MatMul/fq_output_0/output_low" type="Const" version="opset1">
			<data element_type="f32" shape="" offset="34092592" size="4" />
			<output>
				<port id="0" precision="FP32" />
			</output>
		</layer>
		<layer id="136" name="__module.model.decoder.block.0.layer.0.SelfAttention.q/aten::linear/MatMul/fq_output_0/output_high" type="Const" version="opset1">
			<data element_type="f32" shape="" offset="34092596" size="4" />
			<output>
				<port id="0" precision="FP32" />
			</output>
		</layer>
		<layer id="137" name="__module.model.decoder.block.0.layer.0.SelfAttention.q/aten::linear/MatMul/fq_output_0" type="FakeQuantize" version="opset1">
			<data levels="256" auto_broadcast="numpy" />
			<input>
				<port id="0" precision="FP32">
					<dim>-1</dim>
					<dim>-1</dim>
					<dim>1024</dim>
				</port>
				<port id="1" precision="FP32" />
				<port id="2" precision="FP32" />
				<port id="3" precision="FP32" />
				<port id="4" precision="FP32" />
			</input>
			<output>
				<port id="5" precision="FP32">
					<dim>-1</dim>
					<dim>-1</dim>
					<dim>1024</dim>
				</port>
			</output>
		</layer>
		<layer id="138" name="Constant_265677" type="Const" version="opset1">
			<data element_type="i64" shape="4" offset="34092600" size="32" />
			<output>
				<port id="0" precision="I64">
					<dim>4</dim>
				</port>
			</output>
		</layer>
		<layer id="139" name="__module.model.decoder.block.0.layer.0.SelfAttention/aten::view/Reshape" type="Reshape" version="opset1">
			<data special_zero="true" />
			<input>
				<port id="0" precision="FP32">
					<dim>-1</dim>
					<dim>-1</dim>
					<dim>1024</dim>
				</port>
				<port id="1" precision="I64">
					<dim>4</dim>
				</port>
			</input>
			<output>
				<port id="2" precision="FP32" names="369">
					<dim>-1</dim>
					<dim>-1</dim>
					<dim>16</dim>
					<dim>64</dim>
				</port>
			</output>
		</layer>
		<layer id="140" name="__module.model.decoder.block.0.layer.0.SelfAttention/aten::transpose/ScatterElementsUpdate" type="Const" version="opset1">
			<data element_type="i32" shape="4" offset="34092632" size="16" />
			<output>
				<port id="0" precision="I32">
					<dim>4</dim>
				</port>
			</output>
		</layer>
		<layer id="141" name="__module.model.decoder.block.0.layer.0.SelfAttention/aten::transpose/Transpose" type="Transpose" version="opset1">
			<input>
				<port id="0" precision="FP32">
					<dim>-1</dim>
					<dim>-1</dim>
					<dim>16</dim>
					<dim>64</dim>
				</port>
				<port id="1" precision="I32">
					<dim>4</dim>
				</port>
			</input>
			<output>
				<port id="2" precision="FP32" names="370">
					<dim>-1</dim>
					<dim>16</dim>
					<dim>-1</dim>
					<dim>64</dim>
				</port>
			</output>
		</layer>
		<layer id="142" name="Constant_483889" type="Const" version="opset1">
			<data element_type="i8" shape="1024, 1024" offset="34092648" size="1048576" />
			<output>
				<port id="0" precision="I8">
					<dim>1024</dim>
					<dim>1024</dim>
				</port>
			</output>
		</layer>
		<layer id="143" name="Convert_483890" type="Convert" version="opset1">
			<data destination_type="f32" />
			<input>
				<port id="0" precision="I8">
					<dim>1024</dim>
					<dim>1024</dim>
				</port>
			</input>
			<output>
				<port id="1" precision="FP32">
					<dim>1024</dim>
					<dim>1024</dim>
				</port>
			</output>
		</layer>
		<layer id="144" name="Constant_483891" type="Const" version="opset1">
			<data element_type="f32" shape="1024, 1" offset="35141224" size="4096" />
			<output>
				<port id="0" precision="FP32">
					<dim>1024</dim>
					<dim>1</dim>
				</port>
			</output>
		</layer>
		<layer id="145" name="__module.model.decoder.block.0.layer.0.SelfAttention.k/aten::linear/MatMul/fq_weights_1" type="Multiply" version="opset1">
			<data auto_broadcast="numpy" />
			<input>
				<port id="0" precision="FP32">
					<dim>1024</dim>
					<dim>1024</dim>
				</port>
				<port id="1" precision="FP32">
					<dim>1024</dim>
					<dim>1</dim>
				</port>
			</input>
			<output>
				<port id="2" precision="FP32">
					<dim>1024</dim>
					<dim>1024</dim>
				</port>
			</output>
		</layer>
		<layer id="146" name="__module.model.decoder.block.0.layer.0.SelfAttention.k/aten::linear/MatMul" type="MatMul" version="opset1">
			<data transpose_a="false" transpose_b="true" />
			<input>
				<port id="0" precision="FP32">
					<dim>-1</dim>
					<dim>-1</dim>
					<dim>1024</dim>
				</port>
				<port id="1" precision="FP32">
					<dim>1024</dim>
					<dim>1024</dim>
				</port>
			</input>
			<output>
				<port id="2" precision="FP32" names="372,states.3">
					<dim>-1</dim>
					<dim>-1</dim>
					<dim>1024</dim>
				</port>
			</output>
		</layer>
		<layer id="147" name="Constant_265678" type="Const" version="opset1">
			<data element_type="i64" shape="4" offset="34092600" size="32" />
			<output>
				<port id="0" precision="I64">
					<dim>4</dim>
				</port>
			</output>
		</layer>
		<layer id="148" name="__module.model.decoder.block.0.layer.0.SelfAttention/aten::view/Reshape_1" type="Reshape" version="opset1">
			<data special_zero="true" />
			<input>
				<port id="0" precision="FP32">
					<dim>-1</dim>
					<dim>-1</dim>
					<dim>1024</dim>
				</port>
				<port id="1" precision="I64">
					<dim>4</dim>
				</port>
			</input>
			<output>
				<port id="2" precision="FP32" names="374">
					<dim>-1</dim>
					<dim>-1</dim>
					<dim>16</dim>
					<dim>64</dim>
				</port>
			</output>
		</layer>
		<layer id="149" name="__module.model.decoder.block.0.layer.0.SelfAttention/aten::transpose/ScatterElementsUpdate_1" type="Const" version="opset1">
			<data element_type="i32" shape="4" offset="34092632" size="16" />
			<output>
				<port id="0" precision="I32">
					<dim>4</dim>
				</port>
			</output>
		</layer>
		<layer id="150" name="__module.model.decoder.block.0.layer.0.SelfAttention/aten::transpose/Transpose_1" type="Transpose" version="opset1">
			<input>
				<port id="0" precision="FP32">
					<dim>-1</dim>
					<dim>-1</dim>
					<dim>16</dim>
					<dim>64</dim>
				</port>
				<port id="1" precision="I32">
					<dim>4</dim>
				</port>
			</input>
			<output>
				<port id="2" precision="FP32" names="375">
					<dim>-1</dim>
					<dim>16</dim>
					<dim>-1</dim>
					<dim>64</dim>
				</port>
			</output>
		</layer>
		<layer id="151" name="__module.model.decoder.block.0.layer.0.SelfAttention/aten::cat/Concat" type="Concat" version="opset1">
			<data axis="2" />
			<input>
				<port id="0" precision="FP32">
					<dim>-1</dim>
					<dim>16</dim>
					<dim>-1</dim>
					<dim>64</dim>
				</port>
				<port id="1" precision="FP32">
					<dim>-1</dim>
					<dim>16</dim>
					<dim>-1</dim>
					<dim>64</dim>
				</port>
			</input>
			<output>
				<port id="2" precision="FP32" names="present.0.decoder.key">
					<dim>-1</dim>
					<dim>16</dim>
					<dim>-1</dim>
					<dim>64</dim>
				</port>
			</output>
		</layer>
		<layer id="152" name="__module.model.decoder.block.0.layer.0.SelfAttention/aten::matmul/MatMul/fq_input_1/input_low" type="Const" version="opset1">
			<data element_type="f32" shape="" offset="35145320" size="4" />
			<output>
				<port id="0" precision="FP32" />
			</output>
		</layer>
		<layer id="153" name="__module.model.decoder.block.0.layer.0.SelfAttention/aten::matmul/MatMul/fq_input_1/input_high" type="Const" version="opset1">
			<data element_type="f32" shape="" offset="35145324" size="4" />
			<output>
				<port id="0" precision="FP32" />
			</output>
		</layer>
		<layer id="154" name="__module.model.decoder.block.0.layer.0.SelfAttention/aten::matmul/MatMul/fq_input_1/output_low" type="Const" version="opset1">
			<data element_type="f32" shape="" offset="35145320" size="4" />
			<output>
				<port id="0" precision="FP32" />
			</output>
		</layer>
		<layer id="155" name="__module.model.decoder.block.0.layer.0.SelfAttention/aten::matmul/MatMul/fq_input_1/output_high" type="Const" version="opset1">
			<data element_type="f32" shape="" offset="35145324" size="4" />
			<output>
				<port id="0" precision="FP32" />
			</output>
		</layer>
		<layer id="156" name="__module.model.decoder.block.0.layer.0.SelfAttention/aten::matmul/MatMul/fq_input_1" type="FakeQuantize" version="opset1">
			<data levels="256" auto_broadcast="numpy" />
			<input>
				<port id="0" precision="FP32">
					<dim>-1</dim>
					<dim>16</dim>
					<dim>-1</dim>
					<dim>64</dim>
				</port>
				<port id="1" precision="FP32" />
				<port id="2" precision="FP32" />
				<port id="3" precision="FP32" />
				<port id="4" precision="FP32" />
			</input>
			<output>
				<port id="5" precision="FP32">
					<dim>-1</dim>
					<dim>16</dim>
					<dim>-1</dim>
					<dim>64</dim>
				</port>
			</output>
		</layer>
		<layer id="157" name="__module.model.decoder.block.0.layer.0.SelfAttention/aten::matmul/MatMul" type="MatMul" version="opset1">
			<data transpose_a="false" transpose_b="true" />
			<input>
				<port id="0" precision="FP32">
					<dim>-1</dim>
					<dim>16</dim>
					<dim>-1</dim>
					<dim>64</dim>
				</port>
				<port id="1" precision="FP32">
					<dim>-1</dim>
					<dim>16</dim>
					<dim>-1</dim>
					<dim>64</dim>
				</port>
			</input>
			<output>
				<port id="2" precision="FP32" names="386_1">
					<dim>-1</dim>
					<dim>16</dim>
					<dim>-1</dim>
					<dim>-1</dim>
				</port>
			</output>
		</layer>
		<layer id="158" name="Constant_483893" type="Const" version="opset1">
			<data element_type="i8" shape="32, 16" offset="35145328" size="512" />
			<output>
				<port id="0" precision="I8">
					<dim>32</dim>
					<dim>16</dim>
				</port>
			</output>
		</layer>
		<layer id="159" name="Convert_483894" type="Convert" version="opset1">
			<data destination_type="f32" />
			<input>
				<port id="0" precision="I8">
					<dim>32</dim>
					<dim>16</dim>
				</port>
			</input>
			<output>
				<port id="1" precision="FP32">
					<dim>32</dim>
					<dim>16</dim>
				</port>
			</output>
		</layer>
		<layer id="160" name="Constant_483895" type="Const" version="opset1">
			<data element_type="f32" shape="32, 1" offset="35145840" size="128" />
			<output>
				<port id="0" precision="FP32">
					<dim>32</dim>
					<dim>1</dim>
				</port>
			</output>
		</layer>
		<layer id="161" name="__module.model.decoder.block.0.layer.0.SelfAttention.relative_attention_bias/aten::embedding/Gather/fq_weights_0" type="Multiply" version="opset1">
			<data auto_broadcast="numpy" />
			<input>
				<port id="0" precision="FP32">
					<dim>32</dim>
					<dim>16</dim>
				</port>
				<port id="1" precision="FP32">
					<dim>32</dim>
					<dim>1</dim>
				</port>
			</input>
			<output>
				<port id="2" precision="FP32">
					<dim>32</dim>
					<dim>16</dim>
				</port>
			</output>
		</layer>
		<layer id="162" name="__module.model.decoder.block.0.layer.0.SelfAttention/aten::arange/Constant_2" type="Const" version="opset1">
			<data element_type="i32" shape="" offset="33031696" size="4" />
			<output>
				<port id="0" precision="I32" />
			</output>
		</layer>
		<layer id="163" name="ShapeOf_265576" type="ShapeOf" version="opset3">
			<data output_type="i64" />
			<input>
				<port id="0" precision="I64">
					<dim>-1</dim>
					<dim>-1</dim>
				</port>
			</input>
			<output>
				<port id="1" precision="I64">
					<dim>2</dim>
				</port>
			</output>
		</layer>
		<layer id="164" name="Constant_265577" type="Const" version="opset1">
			<data element_type="i64" shape="" offset="35145968" size="8" />
			<output>
				<port id="0" precision="I64" />
			</output>
		</layer>
		<layer id="165" name="Constant_265578" type="Const" version="opset1">
			<data element_type="i64" shape="" offset="35145976" size="8" />
			<output>
				<port id="0" precision="I64" />
			</output>
		</layer>
		<layer id="166" name="Gather_265579" type="Gather" version="opset8">
			<data batch_dims="0" />
			<input>
				<port id="0" precision="I64">
					<dim>2</dim>
				</port>
				<port id="1" precision="I64" />
				<port id="2" precision="I64" />
			</input>
			<output>
				<port id="3" precision="I64" names="281,305,359,414" />
			</output>
		</layer>
		<layer id="167" name="ShapeOf_265589" type="ShapeOf" version="opset3">
			<data output_type="i64" />
			<input>
				<port id="0" precision="FP32">
					<dim>-1</dim>
					<dim>16</dim>
					<dim>-1</dim>
					<dim>64</dim>
				</port>
			</input>
			<output>
				<port id="1" precision="I64">
					<dim>4</dim>
				</port>
			</output>
		</layer>
		<layer id="168" name="Constant_265590" type="Const" version="opset1">
			<data element_type="i64" shape="" offset="35145984" size="8" />
			<output>
				<port id="0" precision="I64" />
			</output>
		</layer>
		<layer id="169" name="Constant_265591" type="Const" version="opset1">
			<data element_type="i64" shape="" offset="35145976" size="8" />
			<output>
				<port id="0" precision="I64" />
			</output>
		</layer>
		<layer id="170" name="Gather_265592" type="Gather" version="opset8">
			<data batch_dims="0" />
			<input>
				<port id="0" precision="I64">
					<dim>4</dim>
				</port>
				<port id="1" precision="I64" />
				<port id="2" precision="I64" />
			</input>
			<output>
				<port id="3" precision="I64" names="286,361" />
			</output>
		</layer>
		<layer id="171" name="__module.model.decoder.block.0.layer.0.SelfAttention/aten::add_/Add" type="Add" version="opset1">
			<data auto_broadcast="numpy" />
			<input>
				<port id="0" precision="I64" />
				<port id="1" precision="I64" />
			</input>
			<output>
				<port id="2" precision="I64" names="360,seq_length.3" />
			</output>
		</layer>
		<layer id="172" name="__module.model.decoder.block.0.layer.0.SelfAttention/aten::arange/Constant_3" type="Const" version="opset1">
			<data element_type="i32" shape="" offset="35145992" size="4" />
			<output>
				<port id="0" precision="I32" />
			</output>
		</layer>
		<layer id="173" name="__module.model.decoder.block.0.layer.0.SelfAttention/aten::arange/Range_1" type="Range" version="opset4">
			<data output_type="i64" />
			<input>
				<port id="0" precision="I32" />
				<port id="1" precision="I64" />
				<port id="2" precision="I32" />
			</input>
			<output>
				<port id="3" precision="I64" names="387,388,390">
					<dim>-1</dim>
				</port>
			</output>
		</layer>
		<layer id="174" name="203" type="Const" version="opset1">
			<data element_type="i64" shape="" offset="35145976" size="8" />
			<output>
				<port id="0" precision="I64" names="203" />
			</output>
		</layer>
		<layer id="175" name="__module.model.decoder.block.0.layer.0.SelfAttention/aten::unsqueeze/Unsqueeze" type="Unsqueeze" version="opset1">
			<input>
				<port id="0" precision="I64">
					<dim>-1</dim>
				</port>
				<port id="1" precision="I64" />
			</input>
			<output>
				<port id="2" precision="I64" names="391,392,memory_position">
					<dim>1</dim>
					<dim>-1</dim>
				</port>
			</output>
		</layer>
		<layer id="176" name="204" type="Const" version="opset1">
			<data element_type="i64" shape="" offset="35145968" size="8" />
			<output>
				<port id="0" precision="I64" names="204" />
			</output>
		</layer>
		<layer id="177" name="__module.model.decoder.block.0.layer.0.SelfAttention/aten::unsqueeze/Unsqueeze_1" type="Unsqueeze" version="opset1">
			<input>
				<port id="0" precision="I64">
					<dim>-1</dim>
				</port>
				<port id="1" precision="I64" />
			</input>
			<output>
				<port id="2" precision="I64" names="389,context_position">
					<dim>-1</dim>
					<dim>1</dim>
				</port>
			</output>
		</layer>
		<layer id="178" name="__module.model.decoder.block.0.layer.0.SelfAttention/aten::sub/Subtract" type="Subtract" version="opset1">
			<data auto_broadcast="numpy" />
			<input>
				<port id="0" precision="I64">
					<dim>1</dim>
					<dim>-1</dim>
				</port>
				<port id="1" precision="I64">
					<dim>-1</dim>
					<dim>1</dim>
				</port>
			</input>
			<output>
				<port id="2" precision="I64" names="393">
					<dim>-1</dim>
					<dim>-1</dim>
				</port>
			</output>
		</layer>
		<layer id="179" name="__module.model.decoder.block.0.layer.0.SelfAttention/aten::zeros_like/Constant" type="Const" version="opset1">
			<data element_type="f32" shape="" offset="33031696" size="4" />
			<output>
				<port id="0" precision="FP32" />
			</output>
		</layer>
		<layer id="180" name="__module.model.decoder.block.0.layer.0.SelfAttention/aten::zeros_like/ShapeOf" type="ShapeOf" version="opset3">
			<data output_type="i32" />
			<input>
				<port id="0" precision="I64">
					<dim>-1</dim>
					<dim>-1</dim>
				</port>
			</input>
			<output>
				<port id="1" precision="I32">
					<dim>2</dim>
				</port>
			</output>
		</layer>
		<layer id="181" name="__module.model.decoder.block.0.layer.0.SelfAttention/aten::zeros_like/Broadcast" type="Broadcast" version="opset3">
			<data mode="numpy" />
			<input>
				<port id="0" precision="FP32" />
				<port id="1" precision="I32">
					<dim>2</dim>
				</port>
			</input>
			<output>
				<port id="2" precision="FP32">
					<dim>-1</dim>
					<dim>-1</dim>
				</port>
			</output>
		</layer>
		<layer id="182" name="__module.model.decoder.block.0.layer.0.SelfAttention/aten::zeros_like/ConvertLike" type="Convert" version="opset1">
			<data destination_type="i64" />
			<input>
				<port id="0" precision="FP32">
					<dim>-1</dim>
					<dim>-1</dim>
				</port>
			</input>
			<output>
				<port id="1" precision="I64" names="394">
					<dim>-1</dim>
					<dim>-1</dim>
				</port>
			</output>
		</layer>
		<layer id="183" name="__module.model.decoder.block.0.layer.0.SelfAttention/aten::min/Minimum" type="Minimum" version="opset1">
			<data auto_broadcast="numpy" />
			<input>
				<port id="0" precision="I64">
					<dim>-1</dim>
					<dim>-1</dim>
				</port>
				<port id="1" precision="I64">
					<dim>-1</dim>
					<dim>-1</dim>
				</port>
			</input>
			<output>
				<port id="2" precision="I64" names="395">
					<dim>-1</dim>
					<dim>-1</dim>
				</port>
			</output>
		</layer>
		<layer id="184" name="Constant_264435" type="Const" version="opset1">
			<data element_type="i64" shape="1, 1" offset="33035804" size="8" />
			<output>
				<port id="0" precision="I64">
					<dim>1</dim>
					<dim>1</dim>
				</port>
			</output>
		</layer>
		<layer id="185" name="__module.model.decoder.block.0.layer.0.SelfAttention/aten::neg/Multiply" type="Multiply" version="opset1">
			<data auto_broadcast="numpy" />
			<input>
				<port id="0" precision="I64">
					<dim>-1</dim>
					<dim>-1</dim>
				</port>
				<port id="1" precision="I64">
					<dim>1</dim>
					<dim>1</dim>
				</port>
			</input>
			<output>
				<port id="2" precision="I64" names="396,relative_position">
					<dim>-1</dim>
					<dim>-1</dim>
				</port>
			</output>
		</layer>
		<layer id="186" name="Constant_264436" type="Const" version="opset1">
			<data element_type="i64" shape="1, 1" offset="35145996" size="8" />
			<output>
				<port id="0" precision="I64">
					<dim>1</dim>
					<dim>1</dim>
				</port>
			</output>
		</layer>
		<layer id="187" name="__module.model.decoder.block.0.layer.0.SelfAttention/aten::lt/Less" type="Less" version="opset1">
			<data auto_broadcast="numpy" />
			<input>
				<port id="0" precision="I64">
					<dim>-1</dim>
					<dim>-1</dim>
				</port>
				<port id="1" precision="I64">
					<dim>1</dim>
					<dim>1</dim>
				</port>
			</input>
			<output>
				<port id="2" precision="BOOL" names="397">
					<dim>-1</dim>
					<dim>-1</dim>
				</port>
			</output>
		</layer>
		<layer id="188" name="__module.model.decoder.block.0.layer.0.SelfAttention/aten::to/Convert" type="Convert" version="opset1">
			<data destination_type="f32" />
			<input>
				<port id="0" precision="I64">
					<dim>-1</dim>
					<dim>-1</dim>
				</port>
			</input>
			<output>
				<port id="1" precision="FP32" names="398">
					<dim>-1</dim>
					<dim>-1</dim>
				</port>
			</output>
		</layer>
		<layer id="189" name="Constant_264437" type="Const" version="opset1">
			<data element_type="f32" shape="1, 1" offset="35146004" size="4" />
			<output>
				<port id="0" precision="FP32">
					<dim>1</dim>
					<dim>1</dim>
				</port>
			</output>
		</layer>
		<layer id="190" name="__module.model.decoder.block.0.layer.0.SelfAttention/aten::div/Divide" type="Divide" version="opset1">
			<data auto_broadcast="numpy" m_pythondiv="true" />
			<input>
				<port id="0" precision="FP32">
					<dim>-1</dim>
					<dim>-1</dim>
				</port>
				<port id="1" precision="FP32">
					<dim>1</dim>
					<dim>1</dim>
				</port>
			</input>
			<output>
				<port id="2" precision="FP32" names="399">
					<dim>-1</dim>
					<dim>-1</dim>
				</port>
			</output>
		</layer>
		<layer id="191" name="__module.model.decoder.block.0.layer.0.SelfAttention/aten::log/Log" type="Log" version="opset1">
			<input>
				<port id="0" precision="FP32">
					<dim>-1</dim>
					<dim>-1</dim>
				</port>
			</input>
			<output>
				<port id="1" precision="FP32" names="400">
					<dim>-1</dim>
					<dim>-1</dim>
				</port>
			</output>
		</layer>
		<layer id="192" name="Constant_264438" type="Const" version="opset1">
			<data element_type="f32" shape="1, 1" offset="35146008" size="4" />
			<output>
				<port id="0" precision="FP32">
					<dim>1</dim>
					<dim>1</dim>
				</port>
			</output>
		</layer>
		<layer id="193" name="__module.model.decoder.block.0.layer.0.SelfAttention/aten::div/Divide_1" type="Divide" version="opset1">
			<data auto_broadcast="numpy" m_pythondiv="true" />
			<input>
				<port id="0" precision="FP32">
					<dim>-1</dim>
					<dim>-1</dim>
				</port>
				<port id="1" precision="FP32">
					<dim>1</dim>
					<dim>1</dim>
				</port>
			</input>
			<output>
				<port id="2" precision="FP32" names="401">
					<dim>-1</dim>
					<dim>-1</dim>
				</port>
			</output>
		</layer>
		<layer id="194" name="Constant_264439" type="Const" version="opset1">
			<data element_type="f32" shape="1, 1" offset="35146004" size="4" />
			<output>
				<port id="0" precision="FP32">
					<dim>1</dim>
					<dim>1</dim>
				</port>
			</output>
		</layer>
		<layer id="195" name="__module.model.decoder.block.0.layer.0.SelfAttention/aten::mul/Multiply" type="Multiply" version="opset1">
			<data auto_broadcast="numpy" />
			<input>
				<port id="0" precision="FP32">
					<dim>-1</dim>
					<dim>-1</dim>
				</port>
				<port id="1" precision="FP32">
					<dim>1</dim>
					<dim>1</dim>
				</port>
			</input>
			<output>
				<port id="2" precision="FP32" names="402">
					<dim>-1</dim>
					<dim>-1</dim>
				</port>
			</output>
		</layer>
		<layer id="196" name="__module.model.decoder.block.0.layer.0.SelfAttention/aten::to/Convert_1" type="Convert" version="opset1">
			<data destination_type="i64" />
			<input>
				<port id="0" precision="FP32">
					<dim>-1</dim>
					<dim>-1</dim>
				</port>
			</input>
			<output>
				<port id="1" precision="I64" names="403">
					<dim>-1</dim>
					<dim>-1</dim>
				</port>
			</output>
		</layer>
		<layer id="197" name="Constant_264440" type="Const" version="opset1">
			<data element_type="i64" shape="1, 1" offset="35145996" size="8" />
			<output>
				<port id="0" precision="I64">
					<dim>1</dim>
					<dim>1</dim>
				</port>
			</output>
		</layer>
		<layer id="198" name="__module.model.decoder.block.0.layer.0.SelfAttention/aten::add/Add" type="Add" version="opset1">
			<data auto_broadcast="numpy" />
			<input>
				<port id="0" precision="I64">
					<dim>-1</dim>
					<dim>-1</dim>
				</port>
				<port id="1" precision="I64">
					<dim>1</dim>
					<dim>1</dim>
				</port>
			</input>
			<output>
				<port id="2" precision="I64" names="404">
					<dim>-1</dim>
					<dim>-1</dim>
				</port>
			</output>
		</layer>
		<layer id="199" name="Constant_264441" type="Const" version="opset1">
			<data element_type="i64" shape="1, 1" offset="35146012" size="8" />
			<output>
				<port id="0" precision="I64">
					<dim>1</dim>
					<dim>1</dim>
				</port>
			</output>
		</layer>
		<layer id="200" name="__module.model.decoder.block.0.layer.0.SelfAttention/aten::min/Minimum_1" type="Minimum" version="opset1">
			<data auto_broadcast="numpy" />
			<input>
				<port id="0" precision="I64">
					<dim>-1</dim>
					<dim>-1</dim>
				</port>
				<port id="1" precision="I64">
					<dim>1</dim>
					<dim>1</dim>
				</port>
			</input>
			<output>
				<port id="2" precision="I64" names="406">
					<dim>-1</dim>
					<dim>-1</dim>
				</port>
			</output>
		</layer>
		<layer id="201" name="__module.model.decoder.block.0.layer.0.SelfAttention/aten::where/Select" type="Select" version="opset1">
			<data auto_broadcast="numpy" />
			<input>
				<port id="0" precision="BOOL">
					<dim>-1</dim>
					<dim>-1</dim>
				</port>
				<port id="1" precision="I64">
					<dim>-1</dim>
					<dim>-1</dim>
				</port>
				<port id="2" precision="I64">
					<dim>-1</dim>
					<dim>-1</dim>
				</port>
			</input>
			<output>
				<port id="3" precision="I64" names="407,408">
					<dim>-1</dim>
					<dim>-1</dim>
				</port>
			</output>
		</layer>
		<layer id="202" name="__module.model.decoder.block.0.layer.0.SelfAttention.relative_attention_bias/aten::embedding/Convert" type="Convert" version="opset1">
			<data destination_type="i32" />
			<input>
				<port id="0" precision="I64">
					<dim>-1</dim>
					<dim>-1</dim>
				</port>
			</input>
			<output>
				<port id="1" precision="I32">
					<dim>-1</dim>
					<dim>-1</dim>
				</port>
			</output>
		</layer>
		<layer id="203" name="__module.model.decoder.block.0.layer.0.SelfAttention.relative_attention_bias/aten::embedding/Constant" type="Const" version="opset1">
			<data element_type="i32" shape="" offset="33031696" size="4" />
			<output>
				<port id="0" precision="I32" />
			</output>
		</layer>
		<layer id="204" name="__module.model.decoder.block.0.layer.0.SelfAttention.relative_attention_bias/aten::embedding/Gather" type="Gather" version="opset8">
			<data batch_dims="0" />
			<input>
				<port id="0" precision="FP32">
					<dim>32</dim>
					<dim>16</dim>
				</port>
				<port id="1" precision="I32">
					<dim>-1</dim>
					<dim>-1</dim>
				</port>
				<port id="2" precision="I32" />
			</input>
			<output>
				<port id="3" precision="FP32" names="410,values">
					<dim>-1</dim>
					<dim>-1</dim>
					<dim>16</dim>
				</port>
			</output>
		</layer>
		<layer id="205" name="Constant_174095" type="Const" version="opset1">
			<data element_type="i64" shape="3" offset="35146020" size="24" />
			<output>
				<port id="0" precision="I64" names="411">
					<dim>3</dim>
				</port>
			</output>
		</layer>
		<layer id="206" name="__module.model.decoder.block.0.layer.0.SelfAttention/aten::permute/Transpose" type="Transpose" version="opset1">
			<input>
				<port id="0" precision="FP32">
					<dim>-1</dim>
					<dim>-1</dim>
					<dim>16</dim>
				</port>
				<port id="1" precision="I64">
					<dim>3</dim>
				</port>
			</input>
			<output>
				<port id="2" precision="FP32" names="412">
					<dim>16</dim>
					<dim>-1</dim>
					<dim>-1</dim>
				</port>
			</output>
		</layer>
		<layer id="207" name="__module.model.decoder.block.0.layer.0.SelfAttention/aten::unsqueeze/Unsqueeze_2" type="Unsqueeze" version="opset1">
			<input>
				<port id="0" precision="FP32">
					<dim>16</dim>
					<dim>-1</dim>
					<dim>-1</dim>
				</port>
				<port id="1" precision="I64" />
			</input>
			<output>
				<port id="2" precision="FP32" names="413,418,419,position_bias.1">
					<dim>1</dim>
					<dim>16</dim>
					<dim>-1</dim>
					<dim>-1</dim>
				</port>
			</output>
		</layer>
		<layer id="208" name="Constant_298679" type="Const" version="opset1">
			<data element_type="i64" shape="1" offset="33035804" size="8" />
			<output>
				<port id="0" precision="I64">
					<dim>1</dim>
				</port>
			</output>
		</layer>
		<layer id="209" name="Reshape_265564" type="Reshape" version="opset1">
			<data special_zero="false" />
			<input>
				<port id="0" precision="I64" />
				<port id="1" precision="I64">
					<dim>1</dim>
				</port>
			</input>
			<output>
				<port id="2" precision="I64">
					<dim>1</dim>
				</port>
			</output>
		</layer>
		<layer id="210" name="Constant_265566" type="Const" version="opset1">
			<data element_type="i64" shape="1" offset="33035804" size="8" />
			<output>
				<port id="0" precision="I64">
					<dim>1</dim>
				</port>
			</output>
		</layer>
		<layer id="211" name="__module.model.decoder.block.0.layer.0.SelfAttention/aten::neg/Multiply_1" type="Multiply" version="opset1">
			<data auto_broadcast="numpy" />
			<input>
				<port id="0" precision="I64">
					<dim>1</dim>
				</port>
				<port id="1" precision="I64">
					<dim>1</dim>
				</port>
			</input>
			<output>
				<port id="2" precision="I64" names="416,417">
					<dim>1</dim>
				</port>
			</output>
		</layer>
		<layer id="212" name="__module.model.decoder.block.0.layer.0.SelfAttention/aten::slice/Reshape_17" type="Const" version="opset1">
			<data element_type="i64" shape="1" offset="35146044" size="8" />
			<output>
				<port id="0" precision="I64">
					<dim>1</dim>
				</port>
			</output>
		</layer>
		<layer id="213" name="__module.model.decoder.block.0.layer.0.SelfAttention/aten::slice/Reshape_18" type="Const" version="opset1">
			<data element_type="i64" shape="1" offset="35145968" size="8" />
			<output>
				<port id="0" precision="I64">
					<dim>1</dim>
				</port>
			</output>
		</layer>
		<layer id="214" name="__module.model.decoder.block.0.layer.0.SelfAttention/aten::slice/Reshape_19" type="Const" version="opset1">
			<data element_type="i64" shape="1" offset="35145984" size="8" />
			<output>
				<port id="0" precision="I64">
					<dim>1</dim>
				</port>
			</output>
		</layer>
		<layer id="215" name="__module.model.decoder.block.0.layer.0.SelfAttention/aten::slice/Slice_4" type="Slice" version="opset8">
			<input>
				<port id="0" precision="FP32">
					<dim>1</dim>
					<dim>16</dim>
					<dim>-1</dim>
					<dim>-1</dim>
				</port>
				<port id="1" precision="I64">
					<dim>1</dim>
				</port>
				<port id="2" precision="I64">
					<dim>1</dim>
				</port>
				<port id="3" precision="I64">
					<dim>1</dim>
				</port>
				<port id="4" precision="I64">
					<dim>1</dim>
				</port>
			</input>
			<output>
				<port id="5" precision="FP32" names="420,421,position_bias.3">
					<dim>1</dim>
					<dim>16</dim>
					<dim>-1</dim>
					<dim>-1</dim>
				</port>
			</output>
		</layer>
		<layer id="216" name="Constant_264442" type="Const" version="opset1">
			<data element_type="f32" shape="1, 1, 1, 1" offset="33035796" size="4" />
			<output>
				<port id="0" precision="FP32">
					<dim>1</dim>
					<dim>1</dim>
					<dim>1</dim>
					<dim>1</dim>
				</port>
			</output>
		</layer>
		<layer id="217" name="__module.model.decoder/aten::ones/Convert" type="Const" version="opset1">
			<data element_type="f32" shape="" offset="33035796" size="4" />
			<output>
				<port id="0" precision="FP32" />
			</output>
		</layer>
		<layer id="218" name="Constant_265585" type="Const" version="opset1">
			<data element_type="i64" shape="1" offset="35145976" size="8" />
			<output>
				<port id="0" precision="I64">
					<dim>1</dim>
				</port>
			</output>
		</layer>
		<layer id="219" name="Constant_265586" type="Const" version="opset1">
			<data element_type="i64" shape="" offset="35145976" size="8" />
			<output>
				<port id="0" precision="I64" />
			</output>
		</layer>
		<layer id="220" name="Gather_265587" type="Gather" version="opset8">
			<data batch_dims="0" />
			<input>
				<port id="0" precision="I64">
					<dim>2</dim>
				</port>
				<port id="1" precision="I64">
					<dim>1</dim>
				</port>
				<port id="2" precision="I64" />
			</input>
			<output>
				<port id="3" precision="I64" names="1041,1119,1179,1257,1317,1395,1455,1533,1593,1671,1731,1809,1869,1947,2007,2085,2145,2223,2283,2361,2421,2499,2559,2637,2697,2775,280,2835,2913,2973,3051,3111,3189,3249,3327,3387,3465,3525,358,3603,3663,465,567,627,705,765,843,903,981">
					<dim>1</dim>
				</port>
			</output>
		</layer>
		<layer id="221" name="__module.model.decoder/aten::ones/Constant" type="Const" version="opset1">
			<data element_type="f32" shape="" offset="33035796" size="4" />
			<output>
				<port id="0" precision="FP32" />
			</output>
		</layer>
		<layer id="222" name="Constant_298680" type="Const" version="opset1">
			<data element_type="i64" shape="1" offset="33035804" size="8" />
			<output>
				<port id="0" precision="I64">
					<dim>1</dim>
				</port>
			</output>
		</layer>
		<layer id="223" name="Reshape_265567" type="Reshape" version="opset1">
			<data special_zero="false" />
			<input>
				<port id="0" precision="I64" />
				<port id="1" precision="I64">
					<dim>1</dim>
				</port>
			</input>
			<output>
				<port id="2" precision="I64">
					<dim>1</dim>
				</port>
			</output>
		</layer>
		<layer id="224" name="__module.model.decoder/aten::add/Add" type="Add" version="opset1">
			<data auto_broadcast="numpy" />
			<input>
				<port id="0" precision="I64">
					<dim>1</dim>
				</port>
				<port id="1" precision="I64">
					<dim>1</dim>
				</port>
			</input>
			<output>
				<port id="2" precision="I64" names="288,289,447">
					<dim>1</dim>
				</port>
			</output>
		</layer>
		<layer id="225" name="__module.model.decoder/prim::ListConstruct/Concat_1" type="Concat" version="opset1">
			<data axis="0" />
			<input>
				<port id="0" precision="I64">
					<dim>1</dim>
				</port>
				<port id="1" precision="I64">
					<dim>1</dim>
				</port>
			</input>
			<output>
				<port id="2" precision="I64" names="290">
					<dim>2</dim>
				</port>
			</output>
		</layer>
		<layer id="226" name="__module.model.decoder/aten::ones/Broadcast" type="Broadcast" version="opset3">
			<data mode="numpy" />
			<input>
				<port id="0" precision="FP32" />
				<port id="1" precision="I64">
					<dim>2</dim>
				</port>
			</input>
			<output>
				<port id="2" precision="FP32" names="291,317,attention_mask">
					<dim>-1</dim>
					<dim>-1</dim>
				</port>
			</output>
		</layer>
		<layer id="227" name="ShapeOf_265594" type="ShapeOf" version="opset3">
			<data output_type="i64" />
			<input>
				<port id="0" precision="FP32">
					<dim>-1</dim>
					<dim>-1</dim>
				</port>
			</input>
			<output>
				<port id="1" precision="I64">
					<dim>2</dim>
				</port>
			</output>
		</layer>
		<layer id="228" name="Constant_265896" type="Const" version="opset1">
			<data element_type="i64" shape="1" offset="35145968" size="8" />
			<output>
				<port id="0" precision="I64">
					<dim>1</dim>
				</port>
			</output>
		</layer>
		<layer id="229" name="Constant_265596" type="Const" version="opset1">
			<data element_type="i64" shape="" offset="35145976" size="8" />
			<output>
				<port id="0" precision="I64" />
			</output>
		</layer>
		<layer id="230" name="Gather_265597" type="Gather" version="opset8">
			<data batch_dims="0" />
			<input>
				<port id="0" precision="I64">
					<dim>2</dim>
				</port>
				<port id="1" precision="I64">
					<dim>1</dim>
				</port>
				<port id="2" precision="I64" />
			</input>
			<output>
				<port id="3" precision="I64" names="303">
					<dim>1</dim>
				</port>
			</output>
		</layer>
		<layer id="231" name="__module.model.decoder/aten::sub/Subtract" type="Subtract" version="opset1">
			<data auto_broadcast="numpy" />
			<input>
				<port id="0" precision="I64">
					<dim>1</dim>
				</port>
				<port id="1" precision="I64">
					<dim>1</dim>
				</port>
			</input>
			<output>
				<port id="2" precision="I64" names="307,308">
					<dim>1</dim>
				</port>
			</output>
		</layer>
		<layer id="232" name="__module.model.decoder/prim::ListConstruct/Concat_3" type="Concat" version="opset1">
			<data axis="0" />
			<input>
				<port id="0" precision="I64">
					<dim>1</dim>
				</port>
				<port id="1" precision="I64">
					<dim>1</dim>
				</port>
				<port id="2" precision="I64">
					<dim>1</dim>
				</port>
			</input>
			<output>
				<port id="3" precision="I64" names="309">
					<dim>3</dim>
				</port>
			</output>
		</layer>
		<layer id="233" name="__module.model.decoder/aten::ones/Broadcast_1" type="Broadcast" version="opset3">
			<data mode="numpy" />
			<input>
				<port id="0" precision="FP32" />
				<port id="1" precision="I64">
					<dim>3</dim>
				</port>
			</input>
			<output>
				<port id="2" precision="FP32" names="310">
					<dim>-1</dim>
					<dim>-1</dim>
					<dim>-1</dim>
				</port>
			</output>
		</layer>
		<layer id="234" name="__module.model.decoder/aten::arange/Constant" type="Const" version="opset1">
			<data element_type="i32" shape="" offset="33031696" size="4" />
			<output>
				<port id="0" precision="I32" />
			</output>
		</layer>
		<layer id="235" name="__module.model.decoder/aten::arange/Constant_1" type="Const" version="opset1">
			<data element_type="i32" shape="" offset="35145992" size="4" />
			<output>
				<port id="0" precision="I32" />
			</output>
		</layer>
		<layer id="236" name="__module.model.decoder/aten::arange/Range" type="Range" version="opset4">
			<data output_type="f32" />
			<input>
				<port id="0" precision="I32" />
				<port id="1" precision="I64" />
				<port id="2" precision="I32" />
			</input>
			<output>
				<port id="3" precision="FP32">
					<dim>-1</dim>
				</port>
			</output>
		</layer>
		<layer id="237" name="__module.model.decoder/aten::arange/ConvertLike" type="Convert" version="opset1">
			<data destination_type="i64" />
			<input>
				<port id="0" precision="FP32">
					<dim>-1</dim>
				</port>
			</input>
			<output>
				<port id="1" precision="I64" names="292,seq_ids">
					<dim>-1</dim>
				</port>
			</output>
		</layer>
		<layer id="238" name="__module.model.decoder/aten::unsqueeze/Unsqueeze" type="Unsqueeze" version="opset1">
			<input>
				<port id="0" precision="I64">
					<dim>-1</dim>
				</port>
				<port id="1" precision="I64" />
			</input>
			<output>
				<port id="2" precision="I64" names="293,298,299">
					<dim>1</dim>
					<dim>-1</dim>
				</port>
			</output>
		</layer>
		<layer id="239" name="__module.model.decoder/aten::unsqueeze/Unsqueeze_1" type="Unsqueeze" version="opset1">
			<input>
				<port id="0" precision="I64">
					<dim>1</dim>
					<dim>-1</dim>
				</port>
				<port id="1" precision="I64" />
			</input>
			<output>
				<port id="2" precision="I64" names="294,295">
					<dim>1</dim>
					<dim>1</dim>
					<dim>-1</dim>
				</port>
			</output>
		</layer>
		<layer id="240" name="__module.model.decoder/prim::ListConstruct/Reshape_1" type="Const" version="opset1">
			<data element_type="i64" shape="1" offset="35145968" size="8" />
			<output>
				<port id="0" precision="I64">
					<dim>1</dim>
				</port>
			</output>
		</layer>
		<layer id="241" name="__module.model.decoder/prim::ListConstruct/Concat_2" type="Concat" version="opset1">
			<data axis="0" />
			<input>
				<port id="0" precision="I64">
					<dim>1</dim>
				</port>
				<port id="1" precision="I64">
					<dim>1</dim>
				</port>
				<port id="2" precision="I64">
					<dim>1</dim>
				</port>
			</input>
			<output>
				<port id="3" precision="I64" names="296">
					<dim>3</dim>
				</port>
			</output>
		</layer>
		<layer id="242" name="__module.model.decoder/aten::repeat/Tile" type="Tile" version="opset1">
			<input>
				<port id="0" precision="I64">
					<dim>1</dim>
					<dim>1</dim>
					<dim>-1</dim>
				</port>
				<port id="1" precision="I64">
					<dim>3</dim>
				</port>
			</input>
			<output>
				<port id="2" precision="I64" names="297">
					<dim>-1</dim>
					<dim>-1</dim>
					<dim>-1</dim>
				</port>
			</output>
		</layer>
		<layer id="243" name="207" type="Const" version="opset1">
			<data element_type="i64" shape="" offset="35145984" size="8" />
			<output>
				<port id="0" precision="I64" names="207" />
			</output>
		</layer>
		<layer id="244" name="__module.model.decoder/aten::unsqueeze/Unsqueeze_3" type="Unsqueeze" version="opset1">
			<input>
				<port id="0" precision="I64">
					<dim>1</dim>
					<dim>-1</dim>
				</port>
				<port id="1" precision="I64" />
			</input>
			<output>
				<port id="2" precision="I64" names="300">
					<dim>1</dim>
					<dim>-1</dim>
					<dim>1</dim>
				</port>
			</output>
		</layer>
		<layer id="245" name="__module.model.decoder/aten::le/LessEqual" type="LessEqual" version="opset1">
			<data auto_broadcast="numpy" />
			<input>
				<port id="0" precision="I64">
					<dim>-1</dim>
					<dim>-1</dim>
					<dim>-1</dim>
				</port>
				<port id="1" precision="I64">
					<dim>1</dim>
					<dim>-1</dim>
					<dim>1</dim>
				</port>
			</input>
			<output>
				<port id="2" precision="BOOL" names="301,causal_mask.1">
					<dim>-1</dim>
					<dim>-1</dim>
					<dim>-1</dim>
				</port>
			</output>
		</layer>
		<layer id="246" name="__module.model.decoder/aten::to/Convert" type="Convert" version="opset1">
			<data destination_type="f32" />
			<input>
				<port id="0" precision="BOOL">
					<dim>-1</dim>
					<dim>-1</dim>
					<dim>-1</dim>
				</port>
			</input>
			<output>
				<port id="1" precision="FP32" names="302,causal_mask.3">
					<dim>-1</dim>
					<dim>-1</dim>
					<dim>-1</dim>
				</port>
			</output>
		</layer>
		<layer id="247" name="__module.model.decoder/aten::cat/Concat" type="Concat" version="opset1">
			<data axis="-1" />
			<input>
				<port id="0" precision="FP32">
					<dim>-1</dim>
					<dim>-1</dim>
					<dim>-1</dim>
				</port>
				<port id="1" precision="FP32">
					<dim>-1</dim>
					<dim>-1</dim>
					<dim>-1</dim>
				</port>
			</input>
			<output>
				<port id="2" precision="FP32" names="312,313,causal_mask">
					<dim>-1</dim>
					<dim>-1</dim>
					<dim>-1</dim>
				</port>
			</output>
		</layer>
		<layer id="248" name="__module.model.decoder/aten::unsqueeze/Unsqueeze_4" type="Unsqueeze" version="opset1">
			<input>
				<port id="0" precision="FP32">
					<dim>-1</dim>
					<dim>-1</dim>
					<dim>-1</dim>
				</port>
				<port id="1" precision="I64" />
			</input>
			<output>
				<port id="2" precision="FP32" names="314,315,316">
					<dim>-1</dim>
					<dim>1</dim>
					<dim>-1</dim>
					<dim>-1</dim>
				</port>
			</output>
		</layer>
		<layer id="249" name="__module.model.decoder/aten::unsqueeze/Unsqueeze_5" type="Unsqueeze" version="opset1">
			<input>
				<port id="0" precision="FP32">
					<dim>-1</dim>
					<dim>-1</dim>
				</port>
				<port id="1" precision="I64" />
			</input>
			<output>
				<port id="2" precision="FP32" names="318">
					<dim>-1</dim>
					<dim>1</dim>
					<dim>-1</dim>
				</port>
			</output>
		</layer>
		<layer id="250" name="__module.model.decoder/aten::unsqueeze/Unsqueeze_6" type="Unsqueeze" version="opset1">
			<input>
				<port id="0" precision="FP32">
					<dim>-1</dim>
					<dim>1</dim>
					<dim>-1</dim>
				</port>
				<port id="1" precision="I64" />
			</input>
			<output>
				<port id="2" precision="FP32" names="319,320">
					<dim>-1</dim>
					<dim>1</dim>
					<dim>1</dim>
					<dim>-1</dim>
				</port>
			</output>
		</layer>
		<layer id="251" name="__module.model.decoder/aten::mul/Multiply" type="Multiply" version="opset1">
			<data auto_broadcast="numpy" />
			<input>
				<port id="0" precision="FP32">
					<dim>-1</dim>
					<dim>1</dim>
					<dim>-1</dim>
					<dim>-1</dim>
				</port>
				<port id="1" precision="FP32">
					<dim>-1</dim>
					<dim>1</dim>
					<dim>1</dim>
					<dim>-1</dim>
				</port>
			</input>
			<output>
				<port id="2" precision="FP32" names="321,322,extended_attention_mask">
					<dim>-1</dim>
					<dim>1</dim>
					<dim>-1</dim>
					<dim>-1</dim>
				</port>
			</output>
		</layer>
		<layer id="252" name="__module.model.decoder/aten::rsub/Subtract" type="Subtract" version="opset1">
			<data auto_broadcast="numpy" />
			<input>
				<port id="0" precision="FP32">
					<dim>1</dim>
					<dim>1</dim>
					<dim>1</dim>
					<dim>1</dim>
				</port>
				<port id="1" precision="FP32">
					<dim>-1</dim>
					<dim>1</dim>
					<dim>-1</dim>
					<dim>-1</dim>
				</port>
			</input>
			<output>
				<port id="2" precision="FP32" names="323">
					<dim>-1</dim>
					<dim>1</dim>
					<dim>-1</dim>
					<dim>-1</dim>
				</port>
			</output>
		</layer>
		<layer id="253" name="Constant_264443" type="Const" version="opset1">
			<data element_type="f32" shape="1, 1, 1, 1" offset="35146052" size="4" />
			<output>
				<port id="0" precision="FP32">
					<dim>1</dim>
					<dim>1</dim>
					<dim>1</dim>
					<dim>1</dim>
				</port>
			</output>
		</layer>
		<layer id="254" name="__module.model.decoder/aten::mul/Multiply_1" type="Multiply" version="opset1">
			<data auto_broadcast="numpy" />
			<input>
				<port id="0" precision="FP32">
					<dim>-1</dim>
					<dim>1</dim>
					<dim>-1</dim>
					<dim>-1</dim>
				</port>
				<port id="1" precision="FP32">
					<dim>1</dim>
					<dim>1</dim>
					<dim>1</dim>
					<dim>1</dim>
				</port>
			</input>
			<output>
				<port id="2" precision="FP32" names="324,mask.1">
					<dim>-1</dim>
					<dim>1</dim>
					<dim>-1</dim>
					<dim>-1</dim>
				</port>
			</output>
		</layer>
		<layer id="255" name="__module.model.decoder.block.0.layer.0.SelfAttention/aten::add/Add_2" type="Add" version="opset1">
			<data auto_broadcast="numpy" />
			<input>
				<port id="0" precision="FP32">
					<dim>1</dim>
					<dim>16</dim>
					<dim>-1</dim>
					<dim>-1</dim>
				</port>
				<port id="1" precision="FP32">
					<dim>-1</dim>
					<dim>1</dim>
					<dim>-1</dim>
					<dim>-1</dim>
				</port>
			</input>
			<output>
				<port id="2" precision="FP32" names="422,438,445,539,position_bias.5">
					<dim>-1</dim>
					<dim>16</dim>
					<dim>-1</dim>
					<dim>-1</dim>
				</port>
			</output>
		</layer>
		<layer id="256" name="__module.model.decoder.block.0.layer.0.SelfAttention/aten::add_/Add_1" type="Add" version="opset1">
			<data auto_broadcast="numpy" />
			<input>
				<port id="0" precision="FP32">
					<dim>-1</dim>
					<dim>16</dim>
					<dim>-1</dim>
					<dim>-1</dim>
				</port>
				<port id="1" precision="FP32">
					<dim>-1</dim>
					<dim>16</dim>
					<dim>-1</dim>
					<dim>-1</dim>
				</port>
			</input>
			<output>
				<port id="2" precision="FP32" names="386,424,input.3,scores.1">
					<dim>-1</dim>
					<dim>16</dim>
					<dim>-1</dim>
					<dim>-1</dim>
				</port>
			</output>
		</layer>
		<layer id="257" name="__module.model.decoder.block.0.layer.0.SelfAttention/aten::softmax/Softmax" type="SoftMax" version="opset8">
			<data axis="-1" />
			<input>
				<port id="0" precision="FP32">
					<dim>-1</dim>
					<dim>16</dim>
					<dim>-1</dim>
					<dim>-1</dim>
				</port>
			</input>
			<output>
				<port id="1" precision="FP32" names="425,426,input.5">
					<dim>-1</dim>
					<dim>16</dim>
					<dim>-1</dim>
					<dim>-1</dim>
				</port>
			</output>
		</layer>
		<layer id="258" name="Constant_483897" type="Const" version="opset1">
			<data element_type="i8" shape="1024, 1024" offset="35146056" size="1048576" />
			<output>
				<port id="0" precision="I8">
					<dim>1024</dim>
					<dim>1024</dim>
				</port>
			</output>
		</layer>
		<layer id="259" name="Convert_483898" type="Convert" version="opset1">
			<data destination_type="f32" />
			<input>
				<port id="0" precision="I8">
					<dim>1024</dim>
					<dim>1024</dim>
				</port>
			</input>
			<output>
				<port id="1" precision="FP32">
					<dim>1024</dim>
					<dim>1024</dim>
				</port>
			</output>
		</layer>
		<layer id="260" name="Constant_483899" type="Const" version="opset1">
			<data element_type="f32" shape="1024, 1" offset="36194632" size="4096" />
			<output>
				<port id="0" precision="FP32">
					<dim>1024</dim>
					<dim>1</dim>
				</port>
			</output>
		</layer>
		<layer id="261" name="__module.model.decoder.block.0.layer.0.SelfAttention.v/aten::linear/MatMul/fq_weights_1" type="Multiply" version="opset1">
			<data auto_broadcast="numpy" />
			<input>
				<port id="0" precision="FP32">
					<dim>1024</dim>
					<dim>1024</dim>
				</port>
				<port id="1" precision="FP32">
					<dim>1024</dim>
					<dim>1</dim>
				</port>
			</input>
			<output>
				<port id="2" precision="FP32">
					<dim>1024</dim>
					<dim>1024</dim>
				</port>
			</output>
		</layer>
		<layer id="262" name="__module.model.decoder.block.0.layer.0.SelfAttention.v/aten::linear/MatMul" type="MatMul" version="opset1">
			<data transpose_a="false" transpose_b="true" />
			<input>
				<port id="0" precision="FP32">
					<dim>-1</dim>
					<dim>-1</dim>
					<dim>1024</dim>
				</port>
				<port id="1" precision="FP32">
					<dim>1024</dim>
					<dim>1024</dim>
				</port>
			</input>
			<output>
				<port id="2" precision="FP32" names="379,states.5">
					<dim>-1</dim>
					<dim>-1</dim>
					<dim>1024</dim>
				</port>
			</output>
		</layer>
		<layer id="263" name="Constant_265679" type="Const" version="opset1">
			<data element_type="i64" shape="4" offset="34092600" size="32" />
			<output>
				<port id="0" precision="I64">
					<dim>4</dim>
				</port>
			</output>
		</layer>
		<layer id="264" name="__module.model.decoder.block.0.layer.0.SelfAttention/aten::view/Reshape_2" type="Reshape" version="opset1">
			<data special_zero="true" />
			<input>
				<port id="0" precision="FP32">
					<dim>-1</dim>
					<dim>-1</dim>
					<dim>1024</dim>
				</port>
				<port id="1" precision="I64">
					<dim>4</dim>
				</port>
			</input>
			<output>
				<port id="2" precision="FP32" names="381">
					<dim>-1</dim>
					<dim>-1</dim>
					<dim>16</dim>
					<dim>64</dim>
				</port>
			</output>
		</layer>
		<layer id="265" name="__module.model.decoder.block.0.layer.0.SelfAttention/aten::transpose/ScatterElementsUpdate_3" type="Const" version="opset1">
			<data element_type="i32" shape="4" offset="34092632" size="16" />
			<output>
				<port id="0" precision="I32">
					<dim>4</dim>
				</port>
			</output>
		</layer>
		<layer id="266" name="__module.model.decoder.block.0.layer.0.SelfAttention/aten::transpose/Transpose_3" type="Transpose" version="opset1">
			<input>
				<port id="0" precision="FP32">
					<dim>-1</dim>
					<dim>-1</dim>
					<dim>16</dim>
					<dim>64</dim>
				</port>
				<port id="1" precision="I32">
					<dim>4</dim>
				</port>
			</input>
			<output>
				<port id="2" precision="FP32" names="382">
					<dim>-1</dim>
					<dim>16</dim>
					<dim>-1</dim>
					<dim>64</dim>
				</port>
			</output>
		</layer>
		<layer id="267" name="__module.model.decoder.block.0.layer.0.SelfAttention/aten::cat/Concat_1" type="Concat" version="opset1">
			<data axis="2" />
			<input>
				<port id="0" precision="FP32">
					<dim>-1</dim>
					<dim>16</dim>
					<dim>-1</dim>
					<dim>64</dim>
				</port>
				<port id="1" precision="FP32">
					<dim>-1</dim>
					<dim>16</dim>
					<dim>-1</dim>
					<dim>64</dim>
				</port>
			</input>
			<output>
				<port id="2" precision="FP32" names="present.0.decoder.value">
					<dim>-1</dim>
					<dim>16</dim>
					<dim>-1</dim>
					<dim>64</dim>
				</port>
			</output>
		</layer>
		<layer id="268" name="__module.model.decoder.block.0.layer.0.SelfAttention/aten::matmul/MatMul_1" type="MatMul" version="opset1">
			<data transpose_a="false" transpose_b="false" />
			<input>
				<port id="0" precision="FP32">
					<dim>-1</dim>
					<dim>16</dim>
					<dim>-1</dim>
					<dim>-1</dim>
				</port>
				<port id="1" precision="FP32">
					<dim>-1</dim>
					<dim>16</dim>
					<dim>-1</dim>
					<dim>64</dim>
				</port>
			</input>
			<output>
				<port id="2" precision="FP32" names="428,states.7">
					<dim>-1</dim>
					<dim>16</dim>
					<dim>-1</dim>
					<dim>64</dim>
				</port>
			</output>
		</layer>
		<layer id="269" name="__module.model.decoder.block.0.layer.0.SelfAttention/aten::transpose/ScatterElementsUpdate_4" type="Const" version="opset1">
			<data element_type="i32" shape="4" offset="34092632" size="16" />
			<output>
				<port id="0" precision="I32">
					<dim>4</dim>
				</port>
			</output>
		</layer>
		<layer id="270" name="__module.model.decoder.block.0.layer.0.SelfAttention/aten::transpose/Transpose_4" type="Transpose" version="opset1">
			<input>
				<port id="0" precision="FP32">
					<dim>-1</dim>
					<dim>16</dim>
					<dim>-1</dim>
					<dim>64</dim>
				</port>
				<port id="1" precision="I32">
					<dim>4</dim>
				</port>
			</input>
			<output>
				<port id="2" precision="FP32" names="429">
					<dim>-1</dim>
					<dim>-1</dim>
					<dim>16</dim>
					<dim>64</dim>
				</port>
			</output>
		</layer>
		<layer id="271" name="Constant_265680" type="Const" version="opset1">
			<data element_type="i64" shape="3" offset="36198728" size="24" />
			<output>
				<port id="0" precision="I64">
					<dim>3</dim>
				</port>
			</output>
		</layer>
		<layer id="272" name="__module.model.decoder.block.0.layer.0.SelfAttention/aten::view/Reshape_3" type="Reshape" version="opset1">
			<data special_zero="true" />
			<input>
				<port id="0" precision="FP32">
					<dim>-1</dim>
					<dim>-1</dim>
					<dim>16</dim>
					<dim>64</dim>
				</port>
				<port id="1" precision="I64">
					<dim>3</dim>
				</port>
			</input>
			<output>
				<port id="2" precision="FP32" names="432">
					<dim>-1</dim>
					<dim>-1</dim>
					<dim>1024</dim>
				</port>
			</output>
		</layer>
		<layer id="273" name="__module.model.decoder.block.0.layer.0.SelfAttention/aten::view/Reshape_3_0_0/nncf_smooth_quant/scale" type="Const" version="opset1">
			<data element_type="f32" shape="1, 1, 1024" offset="36198752" size="4096" />
			<output>
				<port id="0" precision="FP32">
					<dim>1</dim>
					<dim>1</dim>
					<dim>1024</dim>
				</port>
			</output>
		</layer>
		<layer id="274" name="__module.model.decoder.block.0.layer.0.SelfAttention/aten::view/Reshape_3_0_0/nncf_smooth_quant" type="Multiply" version="opset1">
			<data auto_broadcast="numpy" />
			<input>
				<port id="0" precision="FP32">
					<dim>-1</dim>
					<dim>-1</dim>
					<dim>1024</dim>
				</port>
				<port id="1" precision="FP32">
					<dim>1</dim>
					<dim>1</dim>
					<dim>1024</dim>
				</port>
			</input>
			<output>
				<port id="2" precision="FP32">
					<dim>-1</dim>
					<dim>-1</dim>
					<dim>1024</dim>
				</port>
			</output>
		</layer>
		<layer id="275" name="__module.model.decoder.block.0.layer.0.SelfAttention/aten::view/Reshape_3_0_0/nncf_smooth_quant/fq_output_0/input_low" type="Const" version="opset1">
			<data element_type="f32" shape="" offset="36202848" size="4" />
			<output>
				<port id="0" precision="FP32" />
			</output>
		</layer>
		<layer id="276" name="__module.model.decoder.block.0.layer.0.SelfAttention/aten::view/Reshape_3_0_0/nncf_smooth_quant/fq_output_0/input_high" type="Const" version="opset1">
			<data element_type="f32" shape="" offset="36202852" size="4" />
			<output>
				<port id="0" precision="FP32" />
			</output>
		</layer>
		<layer id="277" name="__module.model.decoder.block.0.layer.0.SelfAttention/aten::view/Reshape_3_0_0/nncf_smooth_quant/fq_output_0/output_low" type="Const" version="opset1">
			<data element_type="f32" shape="" offset="36202848" size="4" />
			<output>
				<port id="0" precision="FP32" />
			</output>
		</layer>
		<layer id="278" name="__module.model.decoder.block.0.layer.0.SelfAttention/aten::view/Reshape_3_0_0/nncf_smooth_quant/fq_output_0/output_high" type="Const" version="opset1">
			<data element_type="f32" shape="" offset="36202852" size="4" />
			<output>
				<port id="0" precision="FP32" />
			</output>
		</layer>
		<layer id="279" name="__module.model.decoder.block.0.layer.0.SelfAttention/aten::view/Reshape_3_0_0/nncf_smooth_quant/fq_output_0" type="FakeQuantize" version="opset1">
			<data levels="256" auto_broadcast="numpy" />
			<input>
				<port id="0" precision="FP32">
					<dim>-1</dim>
					<dim>-1</dim>
					<dim>1024</dim>
				</port>
				<port id="1" precision="FP32" />
				<port id="2" precision="FP32" />
				<port id="3" precision="FP32" />
				<port id="4" precision="FP32" />
			</input>
			<output>
				<port id="5" precision="FP32">
					<dim>-1</dim>
					<dim>-1</dim>
					<dim>1024</dim>
				</port>
			</output>
		</layer>
		<layer id="280" name="Constant_483901" type="Const" version="opset1">
			<data element_type="i8" shape="1024, 1024" offset="36202856" size="1048576" />
			<output>
				<port id="0" precision="I8">
					<dim>1024</dim>
					<dim>1024</dim>
				</port>
			</output>
		</layer>
		<layer id="281" name="Convert_483902" type="Convert" version="opset1">
			<data destination_type="f32" />
			<input>
				<port id="0" precision="I8">
					<dim>1024</dim>
					<dim>1024</dim>
				</port>
			</input>
			<output>
				<port id="1" precision="FP32">
					<dim>1024</dim>
					<dim>1024</dim>
				</port>
			</output>
		</layer>
		<layer id="282" name="Constant_483903" type="Const" version="opset1">
			<data element_type="f32" shape="1024, 1" offset="37251432" size="4096" />
			<output>
				<port id="0" precision="FP32">
					<dim>1024</dim>
					<dim>1</dim>
				</port>
			</output>
		</layer>
		<layer id="283" name="__module.model.decoder.block.0.layer.0.SelfAttention.o/aten::linear/MatMul/fq_weights_1" type="Multiply" version="opset1">
			<data auto_broadcast="numpy" />
			<input>
				<port id="0" precision="FP32">
					<dim>1024</dim>
					<dim>1024</dim>
				</port>
				<port id="1" precision="FP32">
					<dim>1024</dim>
					<dim>1</dim>
				</port>
			</input>
			<output>
				<port id="2" precision="FP32">
					<dim>1024</dim>
					<dim>1024</dim>
				</port>
			</output>
		</layer>
		<layer id="284" name="__module.model.decoder.block.0.layer.0.SelfAttention.o/aten::linear/MatMul" type="MatMul" version="opset1">
			<data transpose_a="false" transpose_b="true" />
			<input>
				<port id="0" precision="FP32">
					<dim>-1</dim>
					<dim>-1</dim>
					<dim>1024</dim>
				</port>
				<port id="1" precision="FP32">
					<dim>1024</dim>
					<dim>1024</dim>
				</port>
			</input>
			<output>
				<port id="2" precision="FP32" names="434,436,input.7">
					<dim>-1</dim>
					<dim>-1</dim>
					<dim>1024</dim>
				</port>
			</output>
		</layer>
		<layer id="285" name="__module.model.decoder.block.0.layer.0/aten::add/Add" type="Add" version="opset1">
			<data auto_broadcast="numpy" />
			<input>
				<port id="0" precision="FP32">
					<dim>-1</dim>
					<dim>-1</dim>
					<dim>1024</dim>
				</port>
				<port id="1" precision="FP32">
					<dim>-1</dim>
					<dim>-1</dim>
					<dim>1024</dim>
				</port>
			</input>
			<output>
				<port id="2" precision="FP32" names="441,444,452,462,hidden_states.11,hidden_states.9">
					<dim>-1</dim>
					<dim>-1</dim>
					<dim>1024</dim>
				</port>
			</output>
		</layer>
		<layer id="286" name="Constant_264447" type="Const" version="opset1">
			<data element_type="f32" shape="1, 1, 1024" offset="37255528" size="4096" />
			<output>
				<port id="0" precision="FP32">
					<dim>1</dim>
					<dim>1</dim>
					<dim>1024</dim>
				</port>
			</output>
		</layer>
		<layer id="287" name="Constant_264446" type="Const" version="opset1">
			<data element_type="f32" shape="1, 1, 1" offset="33035796" size="4" />
			<output>
				<port id="0" precision="FP32">
					<dim>1</dim>
					<dim>1</dim>
					<dim>1</dim>
				</port>
			</output>
		</layer>
		<layer id="288" name="Constant_264444" type="Const" version="opset1">
			<data element_type="f32" shape="1, 1, 1" offset="33035800" size="4" />
			<output>
				<port id="0" precision="FP32">
					<dim>1</dim>
					<dim>1</dim>
					<dim>1</dim>
				</port>
			</output>
		</layer>
		<layer id="289" name="__module.model.decoder.block.0.layer.1.layer_norm/aten::pow/Power" type="Power" version="opset1">
			<data auto_broadcast="numpy" />
			<input>
				<port id="0" precision="FP32">
					<dim>-1</dim>
					<dim>-1</dim>
					<dim>1024</dim>
				</port>
				<port id="1" precision="FP32">
					<dim>1</dim>
					<dim>1</dim>
					<dim>1</dim>
				</port>
			</input>
			<output>
				<port id="2" precision="FP32" names="453">
					<dim>-1</dim>
					<dim>-1</dim>
					<dim>1024</dim>
				</port>
			</output>
		</layer>
		<layer id="290" name="Constant_174210" type="Const" version="opset1">
			<data element_type="i64" shape="1" offset="33035804" size="8" />
			<output>
				<port id="0" precision="I64" names="454">
					<dim>1</dim>
				</port>
			</output>
		</layer>
		<layer id="291" name="__module.model.decoder.block.0.layer.1.layer_norm/aten::mean/ReduceMean" type="ReduceMean" version="opset1">
			<data keep_dims="true" />
			<input>
				<port id="0" precision="FP32">
					<dim>-1</dim>
					<dim>-1</dim>
					<dim>1024</dim>
				</port>
				<port id="1" precision="I64">
					<dim>1</dim>
				</port>
			</input>
			<output>
				<port id="2" precision="FP32" names="455,variance.3">
					<dim>-1</dim>
					<dim>-1</dim>
					<dim>1</dim>
				</port>
			</output>
		</layer>
		<layer id="292" name="Constant_264445" type="Const" version="opset1">
			<data element_type="f32" shape="1, 1, 1" offset="33035812" size="4" />
			<output>
				<port id="0" precision="FP32">
					<dim>1</dim>
					<dim>1</dim>
					<dim>1</dim>
				</port>
			</output>
		</layer>
		<layer id="293" name="__module.model.decoder.block.0.layer.1.layer_norm/aten::add/Add" type="Add" version="opset1">
			<data auto_broadcast="numpy" />
			<input>
				<port id="0" precision="FP32">
					<dim>-1</dim>
					<dim>-1</dim>
					<dim>1</dim>
				</port>
				<port id="1" precision="FP32">
					<dim>1</dim>
					<dim>1</dim>
					<dim>1</dim>
				</port>
			</input>
			<output>
				<port id="2" precision="FP32" names="456">
					<dim>-1</dim>
					<dim>-1</dim>
					<dim>1</dim>
				</port>
			</output>
		</layer>
		<layer id="294" name="__module.model.decoder.block.0.layer.1.layer_norm/aten::rsqrt/Sqrt" type="Sqrt" version="opset1">
			<input>
				<port id="0" precision="FP32">
					<dim>-1</dim>
					<dim>-1</dim>
					<dim>1</dim>
				</port>
			</input>
			<output>
				<port id="1" precision="FP32">
					<dim>-1</dim>
					<dim>-1</dim>
					<dim>1</dim>
				</port>
			</output>
		</layer>
		<layer id="295" name="__module.model.decoder.block.0.layer.1.layer_norm/aten::rsqrt/Divide" type="Divide" version="opset1">
			<data auto_broadcast="numpy" m_pythondiv="true" />
			<input>
				<port id="0" precision="FP32">
					<dim>1</dim>
					<dim>1</dim>
					<dim>1</dim>
				</port>
				<port id="1" precision="FP32">
					<dim>-1</dim>
					<dim>-1</dim>
					<dim>1</dim>
				</port>
			</input>
			<output>
				<port id="2" precision="FP32" names="457">
					<dim>-1</dim>
					<dim>-1</dim>
					<dim>1</dim>
				</port>
			</output>
		</layer>
		<layer id="296" name="__module.model.decoder.block.0.layer.1.layer_norm/aten::mul/Multiply" type="Multiply" version="opset1">
			<data auto_broadcast="numpy" />
			<input>
				<port id="0" precision="FP32">
					<dim>-1</dim>
					<dim>-1</dim>
					<dim>1024</dim>
				</port>
				<port id="1" precision="FP32">
					<dim>-1</dim>
					<dim>-1</dim>
					<dim>1</dim>
				</port>
			</input>
			<output>
				<port id="2" precision="FP32" names="458,hidden_states.13">
					<dim>-1</dim>
					<dim>-1</dim>
					<dim>1024</dim>
				</port>
			</output>
		</layer>
		<layer id="297" name="__module.model.decoder.block.0.layer.1.layer_norm/aten::mul/Multiply_1" type="Multiply" version="opset1">
			<data auto_broadcast="numpy" />
			<input>
				<port id="0" precision="FP32">
					<dim>1</dim>
					<dim>1</dim>
					<dim>1024</dim>
				</port>
				<port id="1" precision="FP32">
					<dim>-1</dim>
					<dim>-1</dim>
					<dim>1024</dim>
				</port>
			</input>
			<output>
				<port id="2" precision="FP32" names="459,461,hidden_states.15">
					<dim>-1</dim>
					<dim>-1</dim>
					<dim>1024</dim>
				</port>
			</output>
		</layer>
		<layer id="298" name="__module.model.decoder.block.0.layer.1.layer_norm/aten::mul/Multiply_1_0_0/nncf_smooth_quant/scale" type="Const" version="opset1">
			<data element_type="f32" shape="1, 1, 1024" offset="37259624" size="4096" />
			<output>
				<port id="0" precision="FP32">
					<dim>1</dim>
					<dim>1</dim>
					<dim>1024</dim>
				</port>
			</output>
		</layer>
		<layer id="299" name="__module.model.decoder.block.0.layer.1.layer_norm/aten::mul/Multiply_1_0_0/nncf_smooth_quant" type="Multiply" version="opset1">
			<data auto_broadcast="numpy" />
			<input>
				<port id="0" precision="FP32">
					<dim>-1</dim>
					<dim>-1</dim>
					<dim>1024</dim>
				</port>
				<port id="1" precision="FP32">
					<dim>1</dim>
					<dim>1</dim>
					<dim>1024</dim>
				</port>
			</input>
			<output>
				<port id="2" precision="FP32">
					<dim>-1</dim>
					<dim>-1</dim>
					<dim>1024</dim>
				</port>
			</output>
		</layer>
		<layer id="300" name="__module.model.decoder.block.0.layer.1.layer_norm/aten::mul/Multiply_1_0_0/nncf_smooth_quant/fq_output_0/input_low" type="Const" version="opset1">
			<data element_type="f32" shape="" offset="37263720" size="4" />
			<output>
				<port id="0" precision="FP32" />
			</output>
		</layer>
		<layer id="301" name="__module.model.decoder.block.0.layer.1.layer_norm/aten::mul/Multiply_1_0_0/nncf_smooth_quant/fq_output_0/input_high" type="Const" version="opset1">
			<data element_type="f32" shape="" offset="37263724" size="4" />
			<output>
				<port id="0" precision="FP32" />
			</output>
		</layer>
		<layer id="302" name="__module.model.decoder.block.0.layer.1.layer_norm/aten::mul/Multiply_1_0_0/nncf_smooth_quant/fq_output_0/output_low" type="Const" version="opset1">
			<data element_type="f32" shape="" offset="37263720" size="4" />
			<output>
				<port id="0" precision="FP32" />
			</output>
		</layer>
		<layer id="303" name="__module.model.decoder.block.0.layer.1.layer_norm/aten::mul/Multiply_1_0_0/nncf_smooth_quant/fq_output_0/output_high" type="Const" version="opset1">
			<data element_type="f32" shape="" offset="37263724" size="4" />
			<output>
				<port id="0" precision="FP32" />
			</output>
		</layer>
		<layer id="304" name="__module.model.decoder.block.0.layer.1.layer_norm/aten::mul/Multiply_1_0_0/nncf_smooth_quant/fq_output_0" type="FakeQuantize" version="opset1">
			<data levels="256" auto_broadcast="numpy" />
			<input>
				<port id="0" precision="FP32">
					<dim>-1</dim>
					<dim>-1</dim>
					<dim>1024</dim>
				</port>
				<port id="1" precision="FP32" />
				<port id="2" precision="FP32" />
				<port id="3" precision="FP32" />
				<port id="4" precision="FP32" />
			</input>
			<output>
				<port id="5" precision="FP32">
					<dim>-1</dim>
					<dim>-1</dim>
					<dim>1024</dim>
				</port>
			</output>
		</layer>
		<layer id="305" name="Constant_483905" type="Const" version="opset1">
			<data element_type="i8" shape="1024, 1024" offset="37263728" size="1048576" />
			<output>
				<port id="0" precision="I8">
					<dim>1024</dim>
					<dim>1024</dim>
				</port>
			</output>
		</layer>
		<layer id="306" name="Convert_483906" type="Convert" version="opset1">
			<data destination_type="f32" />
			<input>
				<port id="0" precision="I8">
					<dim>1024</dim>
					<dim>1024</dim>
				</port>
			</input>
			<output>
				<port id="1" precision="FP32">
					<dim>1024</dim>
					<dim>1024</dim>
				</port>
			</output>
		</layer>
		<layer id="307" name="Constant_483907" type="Const" version="opset1">
			<data element_type="f32" shape="1024, 1" offset="38312304" size="4096" />
			<output>
				<port id="0" precision="FP32">
					<dim>1024</dim>
					<dim>1</dim>
				</port>
			</output>
		</layer>
		<layer id="308" name="__module.model.decoder.block.0.layer.1.EncDecAttention.q/aten::linear/MatMul/fq_weights_1" type="Multiply" version="opset1">
			<data auto_broadcast="numpy" />
			<input>
				<port id="0" precision="FP32">
					<dim>1024</dim>
					<dim>1024</dim>
				</port>
				<port id="1" precision="FP32">
					<dim>1024</dim>
					<dim>1</dim>
				</port>
			</input>
			<output>
				<port id="2" precision="FP32">
					<dim>1024</dim>
					<dim>1024</dim>
				</port>
			</output>
		</layer>
		<layer id="309" name="__module.model.decoder.block.0.layer.1.EncDecAttention.q/aten::linear/MatMul" type="MatMul" version="opset1">
			<data transpose_a="false" transpose_b="true" />
			<input>
				<port id="0" precision="FP32">
					<dim>-1</dim>
					<dim>-1</dim>
					<dim>1024</dim>
				</port>
				<port id="1" precision="FP32">
					<dim>1024</dim>
					<dim>1024</dim>
				</port>
			</input>
			<output>
				<port id="2" precision="FP32" names="472,states.9">
					<dim>-1</dim>
					<dim>-1</dim>
					<dim>1024</dim>
				</port>
			</output>
		</layer>
		<layer id="310" name="__module.model.decoder.block.0.layer.1.EncDecAttention.q/aten::linear/MatMul/fq_output_0/input_low" type="Const" version="opset1">
			<data element_type="f32" shape="" offset="38316400" size="4" />
			<output>
				<port id="0" precision="FP32" />
			</output>
		</layer>
		<layer id="311" name="__module.model.decoder.block.0.layer.1.EncDecAttention.q/aten::linear/MatMul/fq_output_0/input_high" type="Const" version="opset1">
			<data element_type="f32" shape="" offset="38316404" size="4" />
			<output>
				<port id="0" precision="FP32" />
			</output>
		</layer>
		<layer id="312" name="__module.model.decoder.block.0.layer.1.EncDecAttention.q/aten::linear/MatMul/fq_output_0/output_low" type="Const" version="opset1">
			<data element_type="f32" shape="" offset="38316400" size="4" />
			<output>
				<port id="0" precision="FP32" />
			</output>
		</layer>
		<layer id="313" name="__module.model.decoder.block.0.layer.1.EncDecAttention.q/aten::linear/MatMul/fq_output_0/output_high" type="Const" version="opset1">
			<data element_type="f32" shape="" offset="38316404" size="4" />
			<output>
				<port id="0" precision="FP32" />
			</output>
		</layer>
		<layer id="314" name="__module.model.decoder.block.0.layer.1.EncDecAttention.q/aten::linear/MatMul/fq_output_0" type="FakeQuantize" version="opset1">
			<data levels="256" auto_broadcast="numpy" />
			<input>
				<port id="0" precision="FP32">
					<dim>-1</dim>
					<dim>-1</dim>
					<dim>1024</dim>
				</port>
				<port id="1" precision="FP32" />
				<port id="2" precision="FP32" />
				<port id="3" precision="FP32" />
				<port id="4" precision="FP32" />
			</input>
			<output>
				<port id="5" precision="FP32">
					<dim>-1</dim>
					<dim>-1</dim>
					<dim>1024</dim>
				</port>
			</output>
		</layer>
		<layer id="315" name="Constant_265681" type="Const" version="opset1">
			<data element_type="i64" shape="4" offset="34092600" size="32" />
			<output>
				<port id="0" precision="I64">
					<dim>4</dim>
				</port>
			</output>
		</layer>
		<layer id="316" name="__module.model.decoder.block.0.layer.1.EncDecAttention/aten::view/Reshape" type="Reshape" version="opset1">
			<data special_zero="true" />
			<input>
				<port id="0" precision="FP32">
					<dim>-1</dim>
					<dim>-1</dim>
					<dim>1024</dim>
				</port>
				<port id="1" precision="I64">
					<dim>4</dim>
				</port>
			</input>
			<output>
				<port id="2" precision="FP32" names="474">
					<dim>-1</dim>
					<dim>-1</dim>
					<dim>16</dim>
					<dim>64</dim>
				</port>
			</output>
		</layer>
		<layer id="317" name="__module.model.decoder.block.0.layer.1.EncDecAttention/aten::transpose/ScatterElementsUpdate" type="Const" version="opset1">
			<data element_type="i32" shape="4" offset="34092632" size="16" />
			<output>
				<port id="0" precision="I32">
					<dim>4</dim>
				</port>
			</output>
		</layer>
		<layer id="318" name="__module.model.decoder.block.0.layer.1.EncDecAttention/aten::transpose/Transpose" type="Transpose" version="opset1">
			<input>
				<port id="0" precision="FP32">
					<dim>-1</dim>
					<dim>-1</dim>
					<dim>16</dim>
					<dim>64</dim>
				</port>
				<port id="1" precision="I32">
					<dim>4</dim>
				</port>
			</input>
			<output>
				<port id="2" precision="FP32" names="475">
					<dim>-1</dim>
					<dim>16</dim>
					<dim>-1</dim>
					<dim>64</dim>
				</port>
			</output>
		</layer>
		<layer id="319" name="Parameter_200690/fq_output_0/input_low" type="Const" version="opset1">
			<data element_type="f32" shape="" offset="38316408" size="4" />
			<output>
				<port id="0" precision="FP32" />
			</output>
		</layer>
		<layer id="320" name="Parameter_200690/fq_output_0/input_high" type="Const" version="opset1">
			<data element_type="f32" shape="" offset="38316412" size="4" />
			<output>
				<port id="0" precision="FP32" />
			</output>
		</layer>
		<layer id="321" name="Parameter_200690/fq_output_0/output_low" type="Const" version="opset1">
			<data element_type="f32" shape="" offset="38316408" size="4" />
			<output>
				<port id="0" precision="FP32" />
			</output>
		</layer>
		<layer id="322" name="Parameter_200690/fq_output_0/output_high" type="Const" version="opset1">
			<data element_type="f32" shape="" offset="38316412" size="4" />
			<output>
				<port id="0" precision="FP32" />
			</output>
		</layer>
		<layer id="323" name="Parameter_200690/fq_output_0" type="FakeQuantize" version="opset1">
			<data levels="256" auto_broadcast="numpy" />
			<input>
				<port id="0" precision="FP32">
					<dim>-1</dim>
					<dim>16</dim>
					<dim>-1</dim>
					<dim>64</dim>
				</port>
				<port id="1" precision="FP32" />
				<port id="2" precision="FP32" />
				<port id="3" precision="FP32" />
				<port id="4" precision="FP32" />
			</input>
			<output>
				<port id="5" precision="FP32">
					<dim>-1</dim>
					<dim>16</dim>
					<dim>-1</dim>
					<dim>64</dim>
				</port>
			</output>
		</layer>
		<layer id="324" name="__module.model.decoder.block.0.layer.1.EncDecAttention/aten::matmul/MatMul" type="MatMul" version="opset1">
			<data transpose_a="false" transpose_b="true" />
			<input>
				<port id="0" precision="FP32">
					<dim>-1</dim>
					<dim>16</dim>
					<dim>-1</dim>
					<dim>64</dim>
				</port>
				<port id="1" precision="FP32">
					<dim>-1</dim>
					<dim>16</dim>
					<dim>-1</dim>
					<dim>64</dim>
				</port>
			</input>
			<output>
				<port id="2" precision="FP32" names="477_1">
					<dim>-1</dim>
					<dim>16</dim>
					<dim>-1</dim>
					<dim>-1</dim>
				</port>
			</output>
		</layer>
		<layer id="325" name="__module.model.decoder.block.0.layer.1.EncDecAttention/aten::zeros/Convert" type="Const" version="opset1">
			<data element_type="f32" shape="" offset="33031696" size="4" />
			<output>
				<port id="0" precision="FP32" />
			</output>
		</layer>
		<layer id="326" name="__module.model.decoder.block.0.layer.0.SelfAttention/prim::ListConstruct/Reshape_1" type="Const" version="opset1">
			<data element_type="i64" shape="1" offset="35145996" size="8" />
			<output>
				<port id="0" precision="I64">
					<dim>1</dim>
				</port>
			</output>
		</layer>
		<layer id="327" name="ShapeOf_265599" type="ShapeOf" version="opset3">
			<data output_type="i64" />
			<input>
				<port id="0" precision="FP32">
					<dim>-1</dim>
					<dim>-1</dim>
					<dim>1024</dim>
				</port>
			</input>
			<output>
				<port id="1" precision="I64">
					<dim>3</dim>
				</port>
			</output>
		</layer>
		<layer id="328" name="Constant_265899" type="Const" version="opset1">
			<data element_type="i64" shape="1" offset="35145968" size="8" />
			<output>
				<port id="0" precision="I64">
					<dim>1</dim>
				</port>
			</output>
		</layer>
		<layer id="329" name="Constant_265601" type="Const" version="opset1">
			<data element_type="i64" shape="" offset="35145976" size="8" />
			<output>
				<port id="0" precision="I64" />
			</output>
		</layer>
		<layer id="330" name="Gather_265602" type="Gather" version="opset8">
			<data batch_dims="0" />
			<input>
				<port id="0" precision="I64">
					<dim>3</dim>
				</port>
				<port id="1" precision="I64">
					<dim>1</dim>
				</port>
				<port id="2" precision="I64" />
			</input>
			<output>
				<port id="3" precision="I64" names="466,480">
					<dim>1</dim>
				</port>
			</output>
		</layer>
		<layer id="331" name="__module.model.decoder.block.0.layer.1.EncDecAttention/aten::add_/Add" type="Add" version="opset1">
			<data auto_broadcast="numpy" />
			<input>
				<port id="0" precision="I64">
					<dim>1</dim>
				</port>
				<port id="1" precision="I64">
					<dim>1</dim>
				</port>
			</input>
			<output>
				<port id="2" precision="I64" names="467,469,seq_length.5">
					<dim>1</dim>
				</port>
			</output>
		</layer>
		<layer id="332" name="ShapeOf_265671" type="ShapeOf" version="opset3">
			<data output_type="i64" />
			<input>
				<port id="0" precision="FP32">
					<dim>-1</dim>
					<dim>-1</dim>
					<dim>1024</dim>
				</port>
			</input>
			<output>
				<port id="1" precision="I64">
					<dim>3</dim>
				</port>
			</output>
		</layer>
		<layer id="333" name="Constant_265672" type="Const" version="opset1">
			<data element_type="i64" shape="1" offset="35145968" size="8" />
			<output>
				<port id="0" precision="I64">
					<dim>1</dim>
				</port>
			</output>
		</layer>
		<layer id="334" name="Constant_265673" type="Const" version="opset1">
			<data element_type="i64" shape="" offset="35145976" size="8" />
			<output>
				<port id="0" precision="I64" />
			</output>
		</layer>
		<layer id="335" name="Gather_265674" type="Gather" version="opset8">
			<data batch_dims="0" />
			<input>
				<port id="0" precision="I64">
					<dim>3</dim>
				</port>
				<port id="1" precision="I64">
					<dim>1</dim>
				</port>
				<port id="2" precision="I64" />
			</input>
			<output>
				<port id="3" precision="I64" names="470">
					<dim>1</dim>
				</port>
			</output>
		</layer>
		<layer id="336" name="__module.model.decoder.block.0.layer.1.EncDecAttention/prim::ListConstruct/Concat_1" type="Concat" version="opset1">
			<data axis="0" />
			<input>
				<port id="0" precision="I64">
					<dim>1</dim>
				</port>
				<port id="1" precision="I64">
					<dim>1</dim>
				</port>
				<port id="2" precision="I64">
					<dim>1</dim>
				</port>
				<port id="3" precision="I64">
					<dim>1</dim>
				</port>
			</input>
			<output>
				<port id="4" precision="I64" names="478">
					<dim>4</dim>
				</port>
			</output>
		</layer>
		<layer id="337" name="__module.model.decoder.block.0.layer.1.EncDecAttention/aten::zeros/Broadcast" type="Broadcast" version="opset3">
			<data mode="numpy" />
			<input>
				<port id="0" precision="FP32" />
				<port id="1" precision="I64">
					<dim>4</dim>
				</port>
			</input>
			<output>
				<port id="2" precision="FP32" names="479,484,485,position_bias.7">
					<dim>1</dim>
					<dim>16</dim>
					<dim>-1</dim>
					<dim>-1</dim>
				</port>
			</output>
		</layer>
		<layer id="338" name="Constant_265575" type="Const" version="opset1">
			<data element_type="i64" shape="1" offset="33035804" size="8" />
			<output>
				<port id="0" precision="I64">
					<dim>1</dim>
				</port>
			</output>
		</layer>
		<layer id="339" name="__module.model.decoder.block.0.layer.1.EncDecAttention/aten::neg/Multiply" type="Multiply" version="opset1">
			<data auto_broadcast="numpy" />
			<input>
				<port id="0" precision="I64">
					<dim>1</dim>
				</port>
				<port id="1" precision="I64">
					<dim>1</dim>
				</port>
			</input>
			<output>
				<port id="2" precision="I64" names="482,483">
					<dim>1</dim>
				</port>
			</output>
		</layer>
		<layer id="340" name="__module.model.decoder.block.0.layer.1.EncDecAttention/aten::slice/Reshape_9" type="Const" version="opset1">
			<data element_type="i64" shape="1" offset="35146044" size="8" />
			<output>
				<port id="0" precision="I64">
					<dim>1</dim>
				</port>
			</output>
		</layer>
		<layer id="341" name="__module.model.decoder.block.0.layer.1.EncDecAttention/aten::slice/Reshape_10" type="Const" version="opset1">
			<data element_type="i64" shape="1" offset="35145968" size="8" />
			<output>
				<port id="0" precision="I64">
					<dim>1</dim>
				</port>
			</output>
		</layer>
		<layer id="342" name="__module.model.decoder.block.0.layer.1.EncDecAttention/aten::slice/Reshape_11" type="Const" version="opset1">
			<data element_type="i64" shape="1" offset="35145984" size="8" />
			<output>
				<port id="0" precision="I64">
					<dim>1</dim>
				</port>
			</output>
		</layer>
		<layer id="343" name="__module.model.decoder.block.0.layer.1.EncDecAttention/aten::slice/Slice_2" type="Slice" version="opset8">
			<input>
				<port id="0" precision="FP32">
					<dim>1</dim>
					<dim>16</dim>
					<dim>-1</dim>
					<dim>-1</dim>
				</port>
				<port id="1" precision="I64">
					<dim>1</dim>
				</port>
				<port id="2" precision="I64">
					<dim>1</dim>
				</port>
				<port id="3" precision="I64">
					<dim>1</dim>
				</port>
				<port id="4" precision="I64">
					<dim>1</dim>
				</port>
			</input>
			<output>
				<port id="5" precision="FP32" names="486,487,position_bias.9">
					<dim>1</dim>
					<dim>16</dim>
					<dim>-1</dim>
					<dim>-1</dim>
				</port>
			</output>
		</layer>
		<layer id="344" name="Constant_264449" type="Const" version="opset1">
			<data element_type="f32" shape="1, 1, 1, 1" offset="33035796" size="4" />
			<output>
				<port id="0" precision="FP32">
					<dim>1</dim>
					<dim>1</dim>
					<dim>1</dim>
					<dim>1</dim>
				</port>
			</output>
		</layer>
		<layer id="345" name="__module.model.decoder/aten::unsqueeze/Unsqueeze_7" type="Unsqueeze" version="opset1">
			<input>
				<port id="0" precision="I64">
					<dim>-1</dim>
					<dim>-1</dim>
				</port>
				<port id="1" precision="I64" />
			</input>
			<output>
				<port id="2" precision="I64" names="326">
					<dim>-1</dim>
					<dim>1</dim>
					<dim>-1</dim>
				</port>
			</output>
		</layer>
		<layer id="346" name="__module.model.decoder/aten::unsqueeze/Unsqueeze_8" type="Unsqueeze" version="opset1">
			<input>
				<port id="0" precision="I64">
					<dim>-1</dim>
					<dim>1</dim>
					<dim>-1</dim>
				</port>
				<port id="1" precision="I64" />
			</input>
			<output>
				<port id="2" precision="I64" names="327,328,encoder_extended_attention_mask">
					<dim>-1</dim>
					<dim>1</dim>
					<dim>1</dim>
					<dim>-1</dim>
				</port>
			</output>
		</layer>
		<layer id="347" name="__module.model.decoder/aten::to/Convert_2" type="Convert" version="opset1">
			<data destination_type="f32" />
			<input>
				<port id="0" precision="I64">
					<dim>-1</dim>
					<dim>1</dim>
					<dim>1</dim>
					<dim>-1</dim>
				</port>
			</input>
			<output>
				<port id="1" precision="FP32" names="329">
					<dim>-1</dim>
					<dim>1</dim>
					<dim>1</dim>
					<dim>-1</dim>
				</port>
			</output>
		</layer>
		<layer id="348" name="Constant_264448" type="Const" version="opset1">
			<data element_type="f32" shape="1, 1, 1, 1" offset="33035796" size="4" />
			<output>
				<port id="0" precision="FP32">
					<dim>1</dim>
					<dim>1</dim>
					<dim>1</dim>
					<dim>1</dim>
				</port>
			</output>
		</layer>
		<layer id="349" name="__module.model.decoder/aten::rsub/Multiply_1" type="Multiply" version="opset1">
			<data auto_broadcast="numpy" />
			<input>
				<port id="0" precision="FP32">
					<dim>-1</dim>
					<dim>1</dim>
					<dim>1</dim>
					<dim>-1</dim>
				</port>
				<port id="1" precision="FP32">
					<dim>1</dim>
					<dim>1</dim>
					<dim>1</dim>
					<dim>1</dim>
				</port>
			</input>
			<output>
				<port id="2" precision="FP32">
					<dim>-1</dim>
					<dim>1</dim>
					<dim>1</dim>
					<dim>-1</dim>
				</port>
			</output>
		</layer>
		<layer id="350" name="__module.model.decoder/aten::rsub/Subtract_1" type="Subtract" version="opset1">
			<data auto_broadcast="numpy" />
			<input>
				<port id="0" precision="FP32">
					<dim>1</dim>
					<dim>1</dim>
					<dim>1</dim>
					<dim>1</dim>
				</port>
				<port id="1" precision="FP32">
					<dim>-1</dim>
					<dim>1</dim>
					<dim>1</dim>
					<dim>-1</dim>
				</port>
			</input>
			<output>
				<port id="2" precision="FP32" names="330">
					<dim>-1</dim>
					<dim>1</dim>
					<dim>1</dim>
					<dim>-1</dim>
				</port>
			</output>
		</layer>
		<layer id="351" name="Constant_264450" type="Const" version="opset1">
			<data element_type="f32" shape="1, 1, 1, 1" offset="35146052" size="4" />
			<output>
				<port id="0" precision="FP32">
					<dim>1</dim>
					<dim>1</dim>
					<dim>1</dim>
					<dim>1</dim>
				</port>
			</output>
		</layer>
		<layer id="352" name="__module.model.decoder/aten::mul/Multiply_2" type="Multiply" version="opset1">
			<data auto_broadcast="numpy" />
			<input>
				<port id="0" precision="FP32">
					<dim>-1</dim>
					<dim>1</dim>
					<dim>1</dim>
					<dim>-1</dim>
				</port>
				<port id="1" precision="FP32">
					<dim>1</dim>
					<dim>1</dim>
					<dim>1</dim>
					<dim>1</dim>
				</port>
			</input>
			<output>
				<port id="2" precision="FP32" names="331,mask">
					<dim>-1</dim>
					<dim>1</dim>
					<dim>1</dim>
					<dim>-1</dim>
				</port>
			</output>
		</layer>
		<layer id="353" name="__module.model.decoder.block.0.layer.1.EncDecAttention/aten::add/Add" type="Add" version="opset1">
			<data auto_broadcast="numpy" />
			<input>
				<port id="0" precision="FP32">
					<dim>1</dim>
					<dim>16</dim>
					<dim>-1</dim>
					<dim>-1</dim>
				</port>
				<port id="1" precision="FP32">
					<dim>-1</dim>
					<dim>1</dim>
					<dim>1</dim>
					<dim>-1</dim>
				</port>
			</input>
			<output>
				<port id="2" precision="FP32" names="488,503,508,540,position_bias">
					<dim>-1</dim>
					<dim>16</dim>
					<dim>-1</dim>
					<dim>-1</dim>
				</port>
			</output>
		</layer>
		<layer id="354" name="__module.model.decoder.block.0.layer.1.EncDecAttention/aten::add_/Add_1" type="Add" version="opset1">
			<data auto_broadcast="numpy" />
			<input>
				<port id="0" precision="FP32">
					<dim>-1</dim>
					<dim>16</dim>
					<dim>-1</dim>
					<dim>-1</dim>
				</port>
				<port id="1" precision="FP32">
					<dim>-1</dim>
					<dim>16</dim>
					<dim>-1</dim>
					<dim>-1</dim>
				</port>
			</input>
			<output>
				<port id="2" precision="FP32" names="477,490,input.9,scores.5">
					<dim>-1</dim>
					<dim>16</dim>
					<dim>-1</dim>
					<dim>-1</dim>
				</port>
			</output>
		</layer>
		<layer id="355" name="__module.model.decoder.block.0.layer.1.EncDecAttention/aten::softmax/Softmax" type="SoftMax" version="opset8">
			<data axis="-1" />
			<input>
				<port id="0" precision="FP32">
					<dim>-1</dim>
					<dim>16</dim>
					<dim>-1</dim>
					<dim>-1</dim>
				</port>
			</input>
			<output>
				<port id="1" precision="FP32" names="491,492,input.11">
					<dim>-1</dim>
					<dim>16</dim>
					<dim>-1</dim>
					<dim>-1</dim>
				</port>
			</output>
		</layer>
		<layer id="356" name="__module.model.decoder.block.0.layer.1.EncDecAttention/aten::softmax/Softmax/fq_output_0/input_low" type="Const" version="opset1">
			<data element_type="f32" shape="" offset="33031696" size="4" />
			<output>
				<port id="0" precision="FP32" />
			</output>
		</layer>
		<layer id="357" name="__module.model.decoder.block.0.layer.1.EncDecAttention/aten::softmax/Softmax/fq_output_0/input_high" type="Const" version="opset1">
			<data element_type="f32" shape="" offset="38316416" size="4" />
			<output>
				<port id="0" precision="FP32" />
			</output>
		</layer>
		<layer id="358" name="__module.model.decoder.block.0.layer.1.EncDecAttention/aten::softmax/Softmax/fq_output_0/output_low" type="Const" version="opset1">
			<data element_type="f32" shape="" offset="33031696" size="4" />
			<output>
				<port id="0" precision="FP32" />
			</output>
		</layer>
		<layer id="359" name="__module.model.decoder.block.0.layer.1.EncDecAttention/aten::softmax/Softmax/fq_output_0/output_high" type="Const" version="opset1">
			<data element_type="f32" shape="" offset="38316416" size="4" />
			<output>
				<port id="0" precision="FP32" />
			</output>
		</layer>
		<layer id="360" name="__module.model.decoder.block.0.layer.1.EncDecAttention/aten::softmax/Softmax/fq_output_0" type="FakeQuantize" version="opset1">
			<data levels="256" auto_broadcast="numpy" />
			<input>
				<port id="0" precision="FP32">
					<dim>-1</dim>
					<dim>16</dim>
					<dim>-1</dim>
					<dim>-1</dim>
				</port>
				<port id="1" precision="FP32" />
				<port id="2" precision="FP32" />
				<port id="3" precision="FP32" />
				<port id="4" precision="FP32" />
			</input>
			<output>
				<port id="5" precision="FP32">
					<dim>-1</dim>
					<dim>16</dim>
					<dim>-1</dim>
					<dim>-1</dim>
				</port>
			</output>
		</layer>
		<layer id="361" name="Parameter_200689/fq_output_0/input_low" type="Const" version="opset1">
			<data element_type="f32" shape="" offset="38316420" size="4" />
			<output>
				<port id="0" precision="FP32" />
			</output>
		</layer>
		<layer id="362" name="Parameter_200689/fq_output_0/input_high" type="Const" version="opset1">
			<data element_type="f32" shape="" offset="38316424" size="4" />
			<output>
				<port id="0" precision="FP32" />
			</output>
		</layer>
		<layer id="363" name="Parameter_200689/fq_output_0/output_low" type="Const" version="opset1">
			<data element_type="f32" shape="" offset="38316420" size="4" />
			<output>
				<port id="0" precision="FP32" />
			</output>
		</layer>
		<layer id="364" name="Parameter_200689/fq_output_0/output_high" type="Const" version="opset1">
			<data element_type="f32" shape="" offset="38316424" size="4" />
			<output>
				<port id="0" precision="FP32" />
			</output>
		</layer>
		<layer id="365" name="Parameter_200689/fq_output_0" type="FakeQuantize" version="opset1">
			<data levels="256" auto_broadcast="numpy" />
			<input>
				<port id="0" precision="FP32">
					<dim>-1</dim>
					<dim>16</dim>
					<dim>-1</dim>
					<dim>64</dim>
				</port>
				<port id="1" precision="FP32" />
				<port id="2" precision="FP32" />
				<port id="3" precision="FP32" />
				<port id="4" precision="FP32" />
			</input>
			<output>
				<port id="5" precision="FP32">
					<dim>-1</dim>
					<dim>16</dim>
					<dim>-1</dim>
					<dim>64</dim>
				</port>
			</output>
		</layer>
		<layer id="366" name="__module.model.decoder.block.0.layer.1.EncDecAttention/aten::matmul/MatMul_1" type="MatMul" version="opset1">
			<data transpose_a="false" transpose_b="false" />
			<input>
				<port id="0" precision="FP32">
					<dim>-1</dim>
					<dim>16</dim>
					<dim>-1</dim>
					<dim>-1</dim>
				</port>
				<port id="1" precision="FP32">
					<dim>-1</dim>
					<dim>16</dim>
					<dim>-1</dim>
					<dim>64</dim>
				</port>
			</input>
			<output>
				<port id="2" precision="FP32" names="494,states.11">
					<dim>-1</dim>
					<dim>16</dim>
					<dim>-1</dim>
					<dim>64</dim>
				</port>
			</output>
		</layer>
		<layer id="367" name="__module.model.decoder.block.0.layer.1.EncDecAttention/aten::transpose/ScatterElementsUpdate_2" type="Const" version="opset1">
			<data element_type="i32" shape="4" offset="34092632" size="16" />
			<output>
				<port id="0" precision="I32">
					<dim>4</dim>
				</port>
			</output>
		</layer>
		<layer id="368" name="__module.model.decoder.block.0.layer.1.EncDecAttention/aten::transpose/Transpose_2" type="Transpose" version="opset1">
			<input>
				<port id="0" precision="FP32">
					<dim>-1</dim>
					<dim>16</dim>
					<dim>-1</dim>
					<dim>64</dim>
				</port>
				<port id="1" precision="I32">
					<dim>4</dim>
				</port>
			</input>
			<output>
				<port id="2" precision="FP32" names="495">
					<dim>-1</dim>
					<dim>-1</dim>
					<dim>16</dim>
					<dim>64</dim>
				</port>
			</output>
		</layer>
		<layer id="369" name="__module.model.decoder/prim::ListConstruct/Reshape" type="Const" version="opset1">
			<data element_type="i64" shape="1" offset="33035804" size="8" />
			<output>
				<port id="0" precision="I64">
					<dim>1</dim>
				</port>
			</output>
		</layer>
		<layer id="370" name="__module.model.decoder.block.0.layer.0.SelfAttention/prim::ListConstruct/Reshape_1_3" type="Const" version="opset1">
			<data element_type="i64" shape="1" offset="38316428" size="8" />
			<output>
				<port id="0" precision="I64">
					<dim>1</dim>
				</port>
			</output>
		</layer>
		<layer id="371" name="__module.model.decoder.block.0.layer.1.EncDecAttention/prim::ListConstruct/Concat_2" type="Concat" version="opset1">
			<data axis="0" />
			<input>
				<port id="0" precision="I64">
					<dim>1</dim>
				</port>
				<port id="1" precision="I64">
					<dim>1</dim>
				</port>
				<port id="2" precision="I64">
					<dim>1</dim>
				</port>
			</input>
			<output>
				<port id="3" precision="I64" names="1057,1195,1333,1471,1609,1747,1885,2023,2161,2299,2437,2575,2713,2851,2989,3127,3265,3403,3541,3679,497,643,781,919">
					<dim>3</dim>
				</port>
			</output>
		</layer>
		<layer id="372" name="__module.model.decoder.block.0.layer.1.EncDecAttention/aten::view/Reshape_1" type="Reshape" version="opset1">
			<data special_zero="false" />
			<input>
				<port id="0" precision="FP32">
					<dim>-1</dim>
					<dim>-1</dim>
					<dim>16</dim>
					<dim>64</dim>
				</port>
				<port id="1" precision="I64">
					<dim>3</dim>
				</port>
			</input>
			<output>
				<port id="2" precision="FP32" names="498">
					<dim>-1</dim>
					<dim>-1</dim>
					<dim>1024</dim>
				</port>
			</output>
		</layer>
		<layer id="373" name="__module.model.decoder.block.0.layer.1.EncDecAttention/aten::view/Reshape_1_0_0/nncf_smooth_quant/scale" type="Const" version="opset1">
			<data element_type="f32" shape="1, 1, 1024" offset="38316436" size="4096" />
			<output>
				<port id="0" precision="FP32">
					<dim>1</dim>
					<dim>1</dim>
					<dim>1024</dim>
				</port>
			</output>
		</layer>
		<layer id="374" name="__module.model.decoder.block.0.layer.1.EncDecAttention/aten::view/Reshape_1_0_0/nncf_smooth_quant" type="Multiply" version="opset1">
			<data auto_broadcast="numpy" />
			<input>
				<port id="0" precision="FP32">
					<dim>-1</dim>
					<dim>-1</dim>
					<dim>1024</dim>
				</port>
				<port id="1" precision="FP32">
					<dim>1</dim>
					<dim>1</dim>
					<dim>1024</dim>
				</port>
			</input>
			<output>
				<port id="2" precision="FP32">
					<dim>-1</dim>
					<dim>-1</dim>
					<dim>1024</dim>
				</port>
			</output>
		</layer>
		<layer id="375" name="__module.model.decoder.block.0.layer.1.EncDecAttention/aten::view/Reshape_1_0_0/nncf_smooth_quant/fq_output_0/input_low" type="Const" version="opset1">
			<data element_type="f32" shape="" offset="38320532" size="4" />
			<output>
				<port id="0" precision="FP32" />
			</output>
		</layer>
		<layer id="376" name="__module.model.decoder.block.0.layer.1.EncDecAttention/aten::view/Reshape_1_0_0/nncf_smooth_quant/fq_output_0/input_high" type="Const" version="opset1">
			<data element_type="f32" shape="" offset="38320536" size="4" />
			<output>
				<port id="0" precision="FP32" />
			</output>
		</layer>
		<layer id="377" name="__module.model.decoder.block.0.layer.1.EncDecAttention/aten::view/Reshape_1_0_0/nncf_smooth_quant/fq_output_0/output_low" type="Const" version="opset1">
			<data element_type="f32" shape="" offset="38320532" size="4" />
			<output>
				<port id="0" precision="FP32" />
			</output>
		</layer>
		<layer id="378" name="__module.model.decoder.block.0.layer.1.EncDecAttention/aten::view/Reshape_1_0_0/nncf_smooth_quant/fq_output_0/output_high" type="Const" version="opset1">
			<data element_type="f32" shape="" offset="38320536" size="4" />
			<output>
				<port id="0" precision="FP32" />
			</output>
		</layer>
		<layer id="379" name="__module.model.decoder.block.0.layer.1.EncDecAttention/aten::view/Reshape_1_0_0/nncf_smooth_quant/fq_output_0" type="FakeQuantize" version="opset1">
			<data levels="256" auto_broadcast="numpy" />
			<input>
				<port id="0" precision="FP32">
					<dim>-1</dim>
					<dim>-1</dim>
					<dim>1024</dim>
				</port>
				<port id="1" precision="FP32" />
				<port id="2" precision="FP32" />
				<port id="3" precision="FP32" />
				<port id="4" precision="FP32" />
			</input>
			<output>
				<port id="5" precision="FP32">
					<dim>-1</dim>
					<dim>-1</dim>
					<dim>1024</dim>
				</port>
			</output>
		</layer>
		<layer id="380" name="Constant_483909" type="Const" version="opset1">
			<data element_type="i8" shape="1024, 1024" offset="38320540" size="1048576" />
			<output>
				<port id="0" precision="I8">
					<dim>1024</dim>
					<dim>1024</dim>
				</port>
			</output>
		</layer>
		<layer id="381" name="Convert_483910" type="Convert" version="opset1">
			<data destination_type="f32" />
			<input>
				<port id="0" precision="I8">
					<dim>1024</dim>
					<dim>1024</dim>
				</port>
			</input>
			<output>
				<port id="1" precision="FP32">
					<dim>1024</dim>
					<dim>1024</dim>
				</port>
			</output>
		</layer>
		<layer id="382" name="Constant_483911" type="Const" version="opset1">
			<data element_type="f32" shape="1024, 1" offset="39369116" size="4096" />
			<output>
				<port id="0" precision="FP32">
					<dim>1024</dim>
					<dim>1</dim>
				</port>
			</output>
		</layer>
		<layer id="383" name="__module.model.decoder.block.0.layer.1.EncDecAttention.o/aten::linear/MatMul/fq_weights_1" type="Multiply" version="opset1">
			<data auto_broadcast="numpy" />
			<input>
				<port id="0" precision="FP32">
					<dim>1024</dim>
					<dim>1024</dim>
				</port>
				<port id="1" precision="FP32">
					<dim>1024</dim>
					<dim>1</dim>
				</port>
			</input>
			<output>
				<port id="2" precision="FP32">
					<dim>1024</dim>
					<dim>1024</dim>
				</port>
			</output>
		</layer>
		<layer id="384" name="__module.model.decoder.block.0.layer.1.EncDecAttention.o/aten::linear/MatMul" type="MatMul" version="opset1">
			<data transpose_a="false" transpose_b="true" />
			<input>
				<port id="0" precision="FP32">
					<dim>-1</dim>
					<dim>-1</dim>
					<dim>1024</dim>
				</port>
				<port id="1" precision="FP32">
					<dim>1024</dim>
					<dim>1024</dim>
				</port>
			</input>
			<output>
				<port id="2" precision="FP32" names="500,502,input.13">
					<dim>-1</dim>
					<dim>-1</dim>
					<dim>1024</dim>
				</port>
			</output>
		</layer>
		<layer id="385" name="__module.model.decoder.block.0.layer.1/aten::add/Add" type="Add" version="opset1">
			<data auto_broadcast="numpy" />
			<input>
				<port id="0" precision="FP32">
					<dim>-1</dim>
					<dim>-1</dim>
					<dim>1024</dim>
				</port>
				<port id="1" precision="FP32">
					<dim>-1</dim>
					<dim>-1</dim>
					<dim>1024</dim>
				</port>
			</input>
			<output>
				<port id="2" precision="FP32" names="505,507,512,522,hidden_states.17,hidden_states.19">
					<dim>-1</dim>
					<dim>-1</dim>
					<dim>1024</dim>
				</port>
			</output>
		</layer>
		<layer id="386" name="Constant_264454" type="Const" version="opset1">
			<data element_type="f32" shape="1, 1, 1024" offset="39373212" size="4096" />
			<output>
				<port id="0" precision="FP32">
					<dim>1</dim>
					<dim>1</dim>
					<dim>1024</dim>
				</port>
			</output>
		</layer>
		<layer id="387" name="Constant_264453" type="Const" version="opset1">
			<data element_type="f32" shape="1, 1, 1" offset="33035796" size="4" />
			<output>
				<port id="0" precision="FP32">
					<dim>1</dim>
					<dim>1</dim>
					<dim>1</dim>
				</port>
			</output>
		</layer>
		<layer id="388" name="Constant_264451" type="Const" version="opset1">
…
		<edge from-layer="4211" from-port="2" to-layer="4213" to-port="0" />
		<edge from-layer="4212" from-port="0" to-layer="4213" to-port="1" />
		<edge from-layer="4213" from-port="2" to-layer="4214" to-port="0" />
		<edge from-layer="4214" from-port="1" to-layer="4215" to-port="1" />
		<edge from-layer="4215" from-port="2" to-layer="4216" to-port="1" />
		<edge from-layer="4216" from-port="2" to-layer="4217" to-port="1" />
		<edge from-layer="4217" from-port="2" to-layer="4219" to-port="0" />
		<edge from-layer="4218" from-port="0" to-layer="4219" to-port="1" />
		<edge from-layer="4219" from-port="2" to-layer="4224" to-port="0" />
		<edge from-layer="4220" from-port="0" to-layer="4224" to-port="1" />
		<edge from-layer="4221" from-port="0" to-layer="4224" to-port="2" />
		<edge from-layer="4222" from-port="0" to-layer="4224" to-port="3" />
		<edge from-layer="4223" from-port="0" to-layer="4224" to-port="4" />
		<edge from-layer="4224" from-port="5" to-layer="4235" to-port="0" />
		<edge from-layer="4224" from-port="5" to-layer="4229" to-port="0" />
		<edge from-layer="4225" from-port="0" to-layer="4226" to-port="0" />
		<edge from-layer="4226" from-port="1" to-layer="4228" to-port="0" />
		<edge from-layer="4227" from-port="0" to-layer="4228" to-port="1" />
		<edge from-layer="4228" from-port="2" to-layer="4229" to-port="1" />
		<edge from-layer="4229" from-port="2" to-layer="4230" to-port="0" />
		<edge from-layer="4230" from-port="1" to-layer="4236" to-port="0" />
		<edge from-layer="4231" from-port="0" to-layer="4232" to-port="0" />
		<edge from-layer="4232" from-port="1" to-layer="4234" to-port="0" />
		<edge from-layer="4233" from-port="0" to-layer="4234" to-port="1" />
		<edge from-layer="4234" from-port="2" to-layer="4235" to-port="1" />
		<edge from-layer="4235" from-port="2" to-layer="4236" to-port="1" />
		<edge from-layer="4236" from-port="2" to-layer="4238" to-port="0" />
		<edge from-layer="4237" from-port="0" to-layer="4238" to-port="1" />
		<edge from-layer="4238" from-port="2" to-layer="4243" to-port="0" />
		<edge from-layer="4239" from-port="0" to-layer="4243" to-port="1" />
		<edge from-layer="4240" from-port="0" to-layer="4243" to-port="2" />
		<edge from-layer="4241" from-port="0" to-layer="4243" to-port="3" />
		<edge from-layer="4242" from-port="0" to-layer="4243" to-port="4" />
		<edge from-layer="4243" from-port="5" to-layer="4248" to-port="0" />
		<edge from-layer="4244" from-port="0" to-layer="4245" to-port="0" />
		<edge from-layer="4245" from-port="1" to-layer="4247" to-port="0" />
		<edge from-layer="4246" from-port="0" to-layer="4247" to-port="1" />
		<edge from-layer="4247" from-port="2" to-layer="4248" to-port="1" />
		<edge from-layer="4248" from-port="2" to-layer="4249" to-port="1" />
		<edge from-layer="4249" from-port="2" to-layer="4328" to-port="0" />
		<edge from-layer="4249" from-port="2" to-layer="4260" to-port="0" />
		<edge from-layer="4249" from-port="2" to-layer="4253" to-port="0" />
		<edge from-layer="4250" from-port="0" to-layer="4261" to-port="0" />
		<edge from-layer="4251" from-port="0" to-layer="4259" to-port="0" />
		<edge from-layer="4252" from-port="0" to-layer="4253" to-port="1" />
		<edge from-layer="4253" from-port="2" to-layer="4255" to-port="0" />
		<edge from-layer="4254" from-port="0" to-layer="4255" to-port="1" />
		<edge from-layer="4255" from-port="2" to-layer="4257" to-port="0" />
		<edge from-layer="4256" from-port="0" to-layer="4257" to-port="1" />
		<edge from-layer="4257" from-port="2" to-layer="4258" to-port="0" />
		<edge from-layer="4258" from-port="1" to-layer="4259" to-port="1" />
		<edge from-layer="4259" from-port="2" to-layer="4260" to-port="1" />
		<edge from-layer="4260" from-port="2" to-layer="4261" to-port="1" />
		<edge from-layer="4261" from-port="2" to-layer="4263" to-port="0" />
		<edge from-layer="4262" from-port="0" to-layer="4263" to-port="1" />
		<edge from-layer="4263" from-port="2" to-layer="4268" to-port="0" />
		<edge from-layer="4264" from-port="0" to-layer="4268" to-port="1" />
		<edge from-layer="4265" from-port="0" to-layer="4268" to-port="2" />
		<edge from-layer="4266" from-port="0" to-layer="4268" to-port="3" />
		<edge from-layer="4267" from-port="0" to-layer="4268" to-port="4" />
		<edge from-layer="4268" from-port="5" to-layer="4287" to-port="0" />
		<edge from-layer="4268" from-port="5" to-layer="4305" to-port="0" />
		<edge from-layer="4268" from-port="5" to-layer="4273" to-port="0" />
		<edge from-layer="4269" from-port="0" to-layer="4270" to-port="0" />
		<edge from-layer="4270" from-port="1" to-layer="4272" to-port="0" />
		<edge from-layer="4271" from-port="0" to-layer="4272" to-port="1" />
		<edge from-layer="4272" from-port="2" to-layer="4273" to-port="1" />
		<edge from-layer="4273" from-port="2" to-layer="4278" to-port="0" />
		<edge from-layer="4274" from-port="0" to-layer="4278" to-port="1" />
		<edge from-layer="4275" from-port="0" to-layer="4278" to-port="2" />
		<edge from-layer="4276" from-port="0" to-layer="4278" to-port="3" />
		<edge from-layer="4277" from-port="0" to-layer="4278" to-port="4" />
		<edge from-layer="4278" from-port="5" to-layer="4280" to-port="0" />
		<edge from-layer="4279" from-port="0" to-layer="4280" to-port="1" />
		<edge from-layer="4280" from-port="2" to-layer="4282" to-port="0" />
		<edge from-layer="4281" from-port="0" to-layer="4282" to-port="1" />
		<edge from-layer="4282" from-port="2" to-layer="4298" to-port="0" />
		<edge from-layer="4283" from-port="0" to-layer="4284" to-port="0" />
		<edge from-layer="4284" from-port="1" to-layer="4286" to-port="0" />
		<edge from-layer="4285" from-port="0" to-layer="4286" to-port="1" />
		<edge from-layer="4286" from-port="2" to-layer="4287" to-port="1" />
		<edge from-layer="4287" from-port="2" to-layer="4289" to-port="0" />
		<edge from-layer="4288" from-port="0" to-layer="4289" to-port="1" />
		<edge from-layer="4289" from-port="2" to-layer="4291" to-port="0" />
		<edge from-layer="4290" from-port="0" to-layer="4291" to-port="1" />
		<edge from-layer="4291" from-port="2" to-layer="4292" to-port="1" />
		<edge from-layer="4292" from-port="2" to-layer="4297" to-port="0" />
		<edge from-layer="4292" from-port="2" to-layer="4675" to-port="0" />
		<edge from-layer="4293" from-port="0" to-layer="4297" to-port="1" />
		<edge from-layer="4294" from-port="0" to-layer="4297" to-port="2" />
		<edge from-layer="4295" from-port="0" to-layer="4297" to-port="3" />
		<edge from-layer="4296" from-port="0" to-layer="4297" to-port="4" />
		<edge from-layer="4297" from-port="5" to-layer="4298" to-port="1" />
		<edge from-layer="4298" from-port="2" to-layer="4299" to-port="0" />
		<edge from-layer="4299" from-port="2" to-layer="4300" to-port="0" />
		<edge from-layer="4300" from-port="1" to-layer="4311" to-port="0" />
		<edge from-layer="4301" from-port="0" to-layer="4302" to-port="0" />
		<edge from-layer="4302" from-port="1" to-layer="4304" to-port="0" />
		<edge from-layer="4303" from-port="0" to-layer="4304" to-port="1" />
		<edge from-layer="4304" from-port="2" to-layer="4305" to-port="1" />
		<edge from-layer="4305" from-port="2" to-layer="4307" to-port="0" />
		<edge from-layer="4306" from-port="0" to-layer="4307" to-port="1" />
		<edge from-layer="4307" from-port="2" to-layer="4309" to-port="0" />
		<edge from-layer="4308" from-port="0" to-layer="4309" to-port="1" />
		<edge from-layer="4309" from-port="2" to-layer="4310" to-port="1" />
		<edge from-layer="4310" from-port="2" to-layer="4311" to-port="1" />
		<edge from-layer="4310" from-port="2" to-layer="4674" to-port="0" />
		<edge from-layer="4311" from-port="2" to-layer="4313" to-port="0" />
		<edge from-layer="4312" from-port="0" to-layer="4313" to-port="1" />
		<edge from-layer="4313" from-port="2" to-layer="4315" to-port="0" />
		<edge from-layer="4314" from-port="0" to-layer="4315" to-port="1" />
		<edge from-layer="4315" from-port="2" to-layer="4317" to-port="0" />
		<edge from-layer="4316" from-port="0" to-layer="4317" to-port="1" />
		<edge from-layer="4317" from-port="2" to-layer="4322" to-port="0" />
		<edge from-layer="4318" from-port="0" to-layer="4322" to-port="1" />
		<edge from-layer="4319" from-port="0" to-layer="4322" to-port="2" />
		<edge from-layer="4320" from-port="0" to-layer="4322" to-port="3" />
		<edge from-layer="4321" from-port="0" to-layer="4322" to-port="4" />
		<edge from-layer="4322" from-port="5" to-layer="4327" to-port="0" />
		<edge from-layer="4323" from-port="0" to-layer="4324" to-port="0" />
		<edge from-layer="4324" from-port="1" to-layer="4326" to-port="0" />
		<edge from-layer="4325" from-port="0" to-layer="4326" to-port="1" />
		<edge from-layer="4326" from-port="2" to-layer="4327" to-port="1" />
		<edge from-layer="4327" from-port="2" to-layer="4328" to-port="1" />
		<edge from-layer="4328" from-port="2" to-layer="4396" to-port="0" />
		<edge from-layer="4328" from-port="2" to-layer="4332" to-port="0" />
		<edge from-layer="4328" from-port="2" to-layer="4339" to-port="0" />
		<edge from-layer="4329" from-port="0" to-layer="4340" to-port="0" />
		<edge from-layer="4330" from-port="0" to-layer="4338" to-port="0" />
		<edge from-layer="4331" from-port="0" to-layer="4332" to-port="1" />
		<edge from-layer="4332" from-port="2" to-layer="4334" to-port="0" />
		<edge from-layer="4333" from-port="0" to-layer="4334" to-port="1" />
		<edge from-layer="4334" from-port="2" to-layer="4336" to-port="0" />
		<edge from-layer="4335" from-port="0" to-layer="4336" to-port="1" />
		<edge from-layer="4336" from-port="2" to-layer="4337" to-port="0" />
		<edge from-layer="4337" from-port="1" to-layer="4338" to-port="1" />
		<edge from-layer="4338" from-port="2" to-layer="4339" to-port="1" />
		<edge from-layer="4339" from-port="2" to-layer="4340" to-port="1" />
		<edge from-layer="4340" from-port="2" to-layer="4342" to-port="0" />
		<edge from-layer="4341" from-port="0" to-layer="4342" to-port="1" />
		<edge from-layer="4342" from-port="2" to-layer="4347" to-port="0" />
		<edge from-layer="4343" from-port="0" to-layer="4347" to-port="1" />
		<edge from-layer="4344" from-port="0" to-layer="4347" to-port="2" />
		<edge from-layer="4345" from-port="0" to-layer="4347" to-port="3" />
		<edge from-layer="4346" from-port="0" to-layer="4347" to-port="4" />
		<edge from-layer="4347" from-port="5" to-layer="4352" to-port="0" />
		<edge from-layer="4348" from-port="0" to-layer="4349" to-port="0" />
		<edge from-layer="4349" from-port="1" to-layer="4351" to-port="0" />
		<edge from-layer="4350" from-port="0" to-layer="4351" to-port="1" />
		<edge from-layer="4351" from-port="2" to-layer="4352" to-port="1" />
		<edge from-layer="4352" from-port="2" to-layer="4357" to-port="0" />
		<edge from-layer="4353" from-port="0" to-layer="4357" to-port="1" />
		<edge from-layer="4354" from-port="0" to-layer="4357" to-port="2" />
		<edge from-layer="4355" from-port="0" to-layer="4357" to-port="3" />
		<edge from-layer="4356" from-port="0" to-layer="4357" to-port="4" />
		<edge from-layer="4357" from-port="5" to-layer="4359" to-port="0" />
		<edge from-layer="4358" from-port="0" to-layer="4359" to-port="1" />
		<edge from-layer="4359" from-port="2" to-layer="4361" to-port="0" />
		<edge from-layer="4360" from-port="0" to-layer="4361" to-port="1" />
		<edge from-layer="4361" from-port="2" to-layer="4367" to-port="0" />
		<edge from-layer="4362" from-port="0" to-layer="4366" to-port="1" />
		<edge from-layer="4363" from-port="0" to-layer="4366" to-port="2" />
		<edge from-layer="4364" from-port="0" to-layer="4366" to-port="3" />
		<edge from-layer="4365" from-port="0" to-layer="4366" to-port="4" />
		<edge from-layer="4366" from-port="5" to-layer="4367" to-port="1" />
		<edge from-layer="4367" from-port="2" to-layer="4368" to-port="0" />
		<edge from-layer="4368" from-port="2" to-layer="4369" to-port="0" />
		<edge from-layer="4369" from-port="1" to-layer="4374" to-port="0" />
		<edge from-layer="4370" from-port="0" to-layer="4374" to-port="1" />
		<edge from-layer="4371" from-port="0" to-layer="4374" to-port="2" />
		<edge from-layer="4372" from-port="0" to-layer="4374" to-port="3" />
		<edge from-layer="4373" from-port="0" to-layer="4374" to-port="4" />
		<edge from-layer="4374" from-port="5" to-layer="4380" to-port="0" />
		<edge from-layer="4375" from-port="0" to-layer="4379" to-port="1" />
		<edge from-layer="4376" from-port="0" to-layer="4379" to-port="2" />
		<edge from-layer="4377" from-port="0" to-layer="4379" to-port="3" />
		<edge from-layer="4378" from-port="0" to-layer="4379" to-port="4" />
		<edge from-layer="4379" from-port="5" to-layer="4380" to-port="1" />
		<edge from-layer="4380" from-port="2" to-layer="4382" to-port="0" />
		<edge from-layer="4381" from-port="0" to-layer="4382" to-port="1" />
		<edge from-layer="4382" from-port="2" to-layer="4383" to-port="0" />
		<edge from-layer="4383" from-port="2" to-layer="4385" to-port="0" />
		<edge from-layer="4384" from-port="0" to-layer="4385" to-port="1" />
		<edge from-layer="4385" from-port="2" to-layer="4390" to-port="0" />
		<edge from-layer="4386" from-port="0" to-layer="4390" to-port="1" />
		<edge from-layer="4387" from-port="0" to-layer="4390" to-port="2" />
		<edge from-layer="4388" from-port="0" to-layer="4390" to-port="3" />
		<edge from-layer="4389" from-port="0" to-layer="4390" to-port="4" />
		<edge from-layer="4390" from-port="5" to-layer="4395" to-port="0" />
		<edge from-layer="4391" from-port="0" to-layer="4392" to-port="0" />
		<edge from-layer="4392" from-port="1" to-layer="4394" to-port="0" />
		<edge from-layer="4393" from-port="0" to-layer="4394" to-port="1" />
		<edge from-layer="4394" from-port="2" to-layer="4395" to-port="1" />
		<edge from-layer="4395" from-port="2" to-layer="4396" to-port="1" />
		<edge from-layer="4396" from-port="2" to-layer="4407" to-port="0" />
		<edge from-layer="4396" from-port="2" to-layer="4440" to-port="0" />
		<edge from-layer="4396" from-port="2" to-layer="4400" to-port="0" />
		<edge from-layer="4397" from-port="0" to-layer="4408" to-port="0" />
		<edge from-layer="4398" from-port="0" to-layer="4406" to-port="0" />
		<edge from-layer="4399" from-port="0" to-layer="4400" to-port="1" />
		<edge from-layer="4400" from-port="2" to-layer="4402" to-port="0" />
		<edge from-layer="4401" from-port="0" to-layer="4402" to-port="1" />
		<edge from-layer="4402" from-port="2" to-layer="4404" to-port="0" />
		<edge from-layer="4403" from-port="0" to-layer="4404" to-port="1" />
		<edge from-layer="4404" from-port="2" to-layer="4405" to-port="0" />
		<edge from-layer="4405" from-port="1" to-layer="4406" to-port="1" />
		<edge from-layer="4406" from-port="2" to-layer="4407" to-port="1" />
		<edge from-layer="4407" from-port="2" to-layer="4408" to-port="1" />
		<edge from-layer="4408" from-port="2" to-layer="4410" to-port="0" />
		<edge from-layer="4409" from-port="0" to-layer="4410" to-port="1" />
		<edge from-layer="4410" from-port="2" to-layer="4415" to-port="0" />
		<edge from-layer="4411" from-port="0" to-layer="4415" to-port="1" />
		<edge from-layer="4412" from-port="0" to-layer="4415" to-port="2" />
		<edge from-layer="4413" from-port="0" to-layer="4415" to-port="3" />
		<edge from-layer="4414" from-port="0" to-layer="4415" to-port="4" />
		<edge from-layer="4415" from-port="5" to-layer="4420" to-port="0" />
		<edge from-layer="4415" from-port="5" to-layer="4426" to-port="0" />
		<edge from-layer="4416" from-port="0" to-layer="4417" to-port="0" />
		<edge from-layer="4417" from-port="1" to-layer="4419" to-port="0" />
		<edge from-layer="4418" from-port="0" to-layer="4419" to-port="1" />
		<edge from-layer="4419" from-port="2" to-layer="4420" to-port="1" />
		<edge from-layer="4420" from-port="2" to-layer="4421" to-port="0" />
		<edge from-layer="4421" from-port="1" to-layer="4427" to-port="0" />
		<edge from-layer="4422" from-port="0" to-layer="4423" to-port="0" />
		<edge from-layer="4423" from-port="1" to-layer="4425" to-port="0" />
		<edge from-layer="4424" from-port="0" to-layer="4425" to-port="1" />
		<edge from-layer="4425" from-port="2" to-layer="4426" to-port="1" />
		<edge from-layer="4426" from-port="2" to-layer="4427" to-port="1" />
		<edge from-layer="4427" from-port="2" to-layer="4429" to-port="0" />
		<edge from-layer="4428" from-port="0" to-layer="4429" to-port="1" />
		<edge from-layer="4429" from-port="2" to-layer="4434" to-port="0" />
		<edge from-layer="4430" from-port="0" to-layer="4434" to-port="1" />
		<edge from-layer="4431" from-port="0" to-layer="4434" to-port="2" />
		<edge from-layer="4432" from-port="0" to-layer="4434" to-port="3" />
		<edge from-layer="4433" from-port="0" to-layer="4434" to-port="4" />
		<edge from-layer="4434" from-port="5" to-layer="4439" to-port="0" />
		<edge from-layer="4435" from-port="0" to-layer="4436" to-port="0" />
		<edge from-layer="4436" from-port="1" to-layer="4438" to-port="0" />
		<edge from-layer="4437" from-port="0" to-layer="4438" to-port="1" />
		<edge from-layer="4438" from-port="2" to-layer="4439" to-port="1" />
		<edge from-layer="4439" from-port="2" to-layer="4440" to-port="1" />
		<edge from-layer="4440" from-port="2" to-layer="4519" to-port="0" />
		<edge from-layer="4440" from-port="2" to-layer="4444" to-port="0" />
		<edge from-layer="4440" from-port="2" to-layer="4451" to-port="0" />
		<edge from-layer="4441" from-port="0" to-layer="4452" to-port="0" />
		<edge from-layer="4442" from-port="0" to-layer="4450" to-port="0" />
		<edge from-layer="4443" from-port="0" to-layer="4444" to-port="1" />
		<edge from-layer="4444" from-port="2" to-layer="4446" to-port="0" />
		<edge from-layer="4445" from-port="0" to-layer="4446" to-port="1" />
		<edge from-layer="4446" from-port="2" to-layer="4448" to-port="0" />
		<edge from-layer="4447" from-port="0" to-layer="4448" to-port="1" />
		<edge from-layer="4448" from-port="2" to-layer="4449" to-port="0" />
		<edge from-layer="4449" from-port="1" to-layer="4450" to-port="1" />
		<edge from-layer="4450" from-port="2" to-layer="4451" to-port="1" />
		<edge from-layer="4451" from-port="2" to-layer="4452" to-port="1" />
		<edge from-layer="4452" from-port="2" to-layer="4454" to-port="0" />
		<edge from-layer="4453" from-port="0" to-layer="4454" to-port="1" />
		<edge from-layer="4454" from-port="2" to-layer="4459" to-port="0" />
		<edge from-layer="4455" from-port="0" to-layer="4459" to-port="1" />
		<edge from-layer="4456" from-port="0" to-layer="4459" to-port="2" />
		<edge from-layer="4457" from-port="0" to-layer="4459" to-port="3" />
		<edge from-layer="4458" from-port="0" to-layer="4459" to-port="4" />
		<edge from-layer="4459" from-port="5" to-layer="4464" to-port="0" />
		<edge from-layer="4459" from-port="5" to-layer="4478" to-port="0" />
		<edge from-layer="4459" from-port="5" to-layer="4496" to-port="0" />
		<edge from-layer="4460" from-port="0" to-layer="4461" to-port="0" />
		<edge from-layer="4461" from-port="1" to-layer="4463" to-port="0" />
		<edge from-layer="4462" from-port="0" to-layer="4463" to-port="1" />
		<edge from-layer="4463" from-port="2" to-layer="4464" to-port="1" />
		<edge from-layer="4464" from-port="2" to-layer="4469" to-port="0" />
		<edge from-layer="4465" from-port="0" to-layer="4469" to-port="1" />
		<edge from-layer="4466" from-port="0" to-layer="4469" to-port="2" />
		<edge from-layer="4467" from-port="0" to-layer="4469" to-port="3" />
		<edge from-layer="4468" from-port="0" to-layer="4469" to-port="4" />
		<edge from-layer="4469" from-port="5" to-layer="4471" to-port="0" />
		<edge from-layer="4470" from-port="0" to-layer="4471" to-port="1" />
		<edge from-layer="4471" from-port="2" to-layer="4473" to-port="0" />
		<edge from-layer="4472" from-port="0" to-layer="4473" to-port="1" />
		<edge from-layer="4473" from-port="2" to-layer="4489" to-port="0" />
		<edge from-layer="4474" from-port="0" to-layer="4475" to-port="0" />
		<edge from-layer="4475" from-port="1" to-layer="4477" to-port="0" />
		<edge from-layer="4476" from-port="0" to-layer="4477" to-port="1" />
		<edge from-layer="4477" from-port="2" to-layer="4478" to-port="1" />
		<edge from-layer="4478" from-port="2" to-layer="4480" to-port="0" />
		<edge from-layer="4479" from-port="0" to-layer="4480" to-port="1" />
		<edge from-layer="4480" from-port="2" to-layer="4482" to-port="0" />
		<edge from-layer="4481" from-port="0" to-layer="4482" to-port="1" />
		<edge from-layer="4482" from-port="2" to-layer="4483" to-port="1" />
		<edge from-layer="4483" from-port="2" to-layer="4488" to-port="0" />
		<edge from-layer="4483" from-port="2" to-layer="4673" to-port="0" />
		<edge from-layer="4484" from-port="0" to-layer="4488" to-port="1" />
		<edge from-layer="4485" from-port="0" to-layer="4488" to-port="2" />
		<edge from-layer="4486" from-port="0" to-layer="4488" to-port="3" />
		<edge from-layer="4487" from-port="0" to-layer="4488" to-port="4" />
		<edge from-layer="4488" from-port="5" to-layer="4489" to-port="1" />
		<edge from-layer="4489" from-port="2" to-layer="4490" to-port="0" />
		<edge from-layer="4490" from-port="2" to-layer="4491" to-port="0" />
		<edge from-layer="4491" from-port="1" to-layer="4502" to-port="0" />
		<edge from-layer="4492" from-port="0" to-layer="4493" to-port="0" />
		<edge from-layer="4493" from-port="1" to-layer="4495" to-port="0" />
		<edge from-layer="4494" from-port="0" to-layer="4495" to-port="1" />
		<edge from-layer="4495" from-port="2" to-layer="4496" to-port="1" />
		<edge from-layer="4496" from-port="2" to-layer="4498" to-port="0" />
		<edge from-layer="4497" from-port="0" to-layer="4498" to-port="1" />
		<edge from-layer="4498" from-port="2" to-layer="4500" to-port="0" />
		<edge from-layer="4499" from-port="0" to-layer="4500" to-port="1" />
		<edge from-layer="4500" from-port="2" to-layer="4501" to-port="1" />
		<edge from-layer="4501" from-port="2" to-layer="4672" to-port="0" />
		<edge from-layer="4501" from-port="2" to-layer="4502" to-port="1" />
		<edge from-layer="4502" from-port="2" to-layer="4504" to-port="0" />
		<edge from-layer="4503" from-port="0" to-layer="4504" to-port="1" />
		<edge from-layer="4504" from-port="2" to-layer="4506" to-port="0" />
		<edge from-layer="4505" from-port="0" to-layer="4506" to-port="1" />
		<edge from-layer="4506" from-port="2" to-layer="4508" to-port="0" />
		<edge from-layer="4507" from-port="0" to-layer="4508" to-port="1" />
		<edge from-layer="4508" from-port="2" to-layer="4513" to-port="0" />
		<edge from-layer="4509" from-port="0" to-layer="4513" to-port="1" />
		<edge from-layer="4510" from-port="0" to-layer="4513" to-port="2" />
		<edge from-layer="4511" from-port="0" to-layer="4513" to-port="3" />
		<edge from-layer="4512" from-port="0" to-layer="4513" to-port="4" />
		<edge from-layer="4513" from-port="5" to-layer="4518" to-port="0" />
		<edge from-layer="4514" from-port="0" to-layer="4515" to-port="0" />
		<edge from-layer="4515" from-port="1" to-layer="4517" to-port="0" />
		<edge from-layer="4516" from-port="0" to-layer="4517" to-port="1" />
		<edge from-layer="4517" from-port="2" to-layer="4518" to-port="1" />
		<edge from-layer="4518" from-port="2" to-layer="4519" to-port="1" />
		<edge from-layer="4519" from-port="2" to-layer="4523" to-port="0" />
		<edge from-layer="4519" from-port="2" to-layer="4587" to-port="0" />
		<edge from-layer="4519" from-port="2" to-layer="4530" to-port="0" />
		<edge from-layer="4520" from-port="0" to-layer="4531" to-port="0" />
		<edge from-layer="4521" from-port="0" to-layer="4529" to-port="0" />
		<edge from-layer="4522" from-port="0" to-layer="4523" to-port="1" />
		<edge from-layer="4523" from-port="2" to-layer="4525" to-port="0" />
		<edge from-layer="4524" from-port="0" to-layer="4525" to-port="1" />
		<edge from-layer="4525" from-port="2" to-layer="4527" to-port="0" />
		<edge from-layer="4526" from-port="0" to-layer="4527" to-port="1" />
		<edge from-layer="4527" from-port="2" to-layer="4528" to-port="0" />
		<edge from-layer="4528" from-port="1" to-layer="4529" to-port="1" />
		<edge from-layer="4529" from-port="2" to-layer="4530" to-port="1" />
		<edge from-layer="4530" from-port="2" to-layer="4531" to-port="1" />
		<edge from-layer="4531" from-port="2" to-layer="4533" to-port="0" />
		<edge from-layer="4532" from-port="0" to-layer="4533" to-port="1" />
		<edge from-layer="4533" from-port="2" to-layer="4538" to-port="0" />
		<edge from-layer="4534" from-port="0" to-layer="4538" to-port="1" />
		<edge from-layer="4535" from-port="0" to-layer="4538" to-port="2" />
		<edge from-layer="4536" from-port="0" to-layer="4538" to-port="3" />
		<edge from-layer="4537" from-port="0" to-layer="4538" to-port="4" />
		<edge from-layer="4538" from-port="5" to-layer="4543" to-port="0" />
		<edge from-layer="4539" from-port="0" to-layer="4540" to-port="0" />
		<edge from-layer="4540" from-port="1" to-layer="4542" to-port="0" />
		<edge from-layer="4541" from-port="0" to-layer="4542" to-port="1" />
		<edge from-layer="4542" from-port="2" to-layer="4543" to-port="1" />
		<edge from-layer="4543" from-port="2" to-layer="4548" to-port="0" />
		<edge from-layer="4544" from-port="0" to-layer="4548" to-port="1" />
		<edge from-layer="4545" from-port="0" to-layer="4548" to-port="2" />
		<edge from-layer="4546" from-port="0" to-layer="4548" to-port="3" />
		<edge from-layer="4547" from-port="0" to-layer="4548" to-port="4" />
		<edge from-layer="4548" from-port="5" to-layer="4550" to-port="0" />
		<edge from-layer="4549" from-port="0" to-layer="4550" to-port="1" />
		<edge from-layer="4550" from-port="2" to-layer="4552" to-port="0" />
		<edge from-layer="4551" from-port="0" to-layer="4552" to-port="1" />
		<edge from-layer="4552" from-port="2" to-layer="4558" to-port="0" />
		<edge from-layer="4553" from-port="0" to-layer="4557" to-port="1" />
		<edge from-layer="4554" from-port="0" to-layer="4557" to-port="2" />
		<edge from-layer="4555" from-port="0" to-layer="4557" to-port="3" />
		<edge from-layer="4556" from-port="0" to-layer="4557" to-port="4" />
		<edge from-layer="4557" from-port="5" to-layer="4558" to-port="1" />
		<edge from-layer="4558" from-port="2" to-layer="4559" to-port="0" />
		<edge from-layer="4559" from-port="2" to-layer="4560" to-port="0" />
		<edge from-layer="4560" from-port="1" to-layer="4565" to-port="0" />
		<edge from-layer="4561" from-port="0" to-layer="4565" to-port="1" />
		<edge from-layer="4562" from-port="0" to-layer="4565" to-port="2" />
		<edge from-layer="4563" from-port="0" to-layer="4565" to-port="3" />
		<edge from-layer="4564" from-port="0" to-layer="4565" to-port="4" />
		<edge from-layer="4565" from-port="5" to-layer="4571" to-port="0" />
		<edge from-layer="4566" from-port="0" to-layer="4570" to-port="1" />
		<edge from-layer="4567" from-port="0" to-layer="4570" to-port="2" />
		<edge from-layer="4568" from-port="0" to-layer="4570" to-port="3" />
		<edge from-layer="4569" from-port="0" to-layer="4570" to-port="4" />
		<edge from-layer="4570" from-port="5" to-layer="4571" to-port="1" />
		<edge from-layer="4571" from-port="2" to-layer="4573" to-port="0" />
		<edge from-layer="4572" from-port="0" to-layer="4573" to-port="1" />
		<edge from-layer="4573" from-port="2" to-layer="4574" to-port="0" />
		<edge from-layer="4574" from-port="2" to-layer="4576" to-port="0" />
		<edge from-layer="4575" from-port="0" to-layer="4576" to-port="1" />
		<edge from-layer="4576" from-port="2" to-layer="4581" to-port="0" />
		<edge from-layer="4577" from-port="0" to-layer="4581" to-port="1" />
		<edge from-layer="4578" from-port="0" to-layer="4581" to-port="2" />
		<edge from-layer="4579" from-port="0" to-layer="4581" to-port="3" />
		<edge from-layer="4580" from-port="0" to-layer="4581" to-port="4" />
		<edge from-layer="4581" from-port="5" to-layer="4586" to-port="0" />
		<edge from-layer="4582" from-port="0" to-layer="4583" to-port="0" />
		<edge from-layer="4583" from-port="1" to-layer="4585" to-port="0" />
		<edge from-layer="4584" from-port="0" to-layer="4585" to-port="1" />
		<edge from-layer="4585" from-port="2" to-layer="4586" to-port="1" />
		<edge from-layer="4586" from-port="2" to-layer="4587" to-port="1" />
		<edge from-layer="4587" from-port="2" to-layer="4631" to-port="0" />
		<edge from-layer="4587" from-port="2" to-layer="4591" to-port="0" />
		<edge from-layer="4587" from-port="2" to-layer="4598" to-port="0" />
		<edge from-layer="4588" from-port="0" to-layer="4599" to-port="0" />
		<edge from-layer="4589" from-port="0" to-layer="4597" to-port="0" />
		<edge from-layer="4590" from-port="0" to-layer="4591" to-port="1" />
		<edge from-layer="4591" from-port="2" to-layer="4593" to-port="0" />
		<edge from-layer="4592" from-port="0" to-layer="4593" to-port="1" />
		<edge from-layer="4593" from-port="2" to-layer="4595" to-port="0" />
		<edge from-layer="4594" from-port="0" to-layer="4595" to-port="1" />
		<edge from-layer="4595" from-port="2" to-layer="4596" to-port="0" />
		<edge from-layer="4596" from-port="1" to-layer="4597" to-port="1" />
		<edge from-layer="4597" from-port="2" to-layer="4598" to-port="1" />
		<edge from-layer="4598" from-port="2" to-layer="4599" to-port="1" />
		<edge from-layer="4599" from-port="2" to-layer="4601" to-port="0" />
		<edge from-layer="4600" from-port="0" to-layer="4601" to-port="1" />
		<edge from-layer="4601" from-port="2" to-layer="4606" to-port="0" />
		<edge from-layer="4602" from-port="0" to-layer="4606" to-port="1" />
		<edge from-layer="4603" from-port="0" to-layer="4606" to-port="2" />
		<edge from-layer="4604" from-port="0" to-layer="4606" to-port="3" />
		<edge from-layer="4605" from-port="0" to-layer="4606" to-port="4" />
		<edge from-layer="4606" from-port="5" to-layer="4617" to-port="0" />
		<edge from-layer="4606" from-port="5" to-layer="4611" to-port="0" />
		<edge from-layer="4607" from-port="0" to-layer="4608" to-port="0" />
		<edge from-layer="4608" from-port="1" to-layer="4610" to-port="0" />
		<edge from-layer="4609" from-port="0" to-layer="4610" to-port="1" />
		<edge from-layer="4610" from-port="2" to-layer="4611" to-port="1" />
		<edge from-layer="4611" from-port="2" to-layer="4612" to-port="0" />
		<edge from-layer="4612" from-port="1" to-layer="4618" to-port="0" />
		<edge from-layer="4613" from-port="0" to-layer="4614" to-port="0" />
		<edge from-layer="4614" from-port="1" to-layer="4616" to-port="0" />
		<edge from-layer="4615" from-port="0" to-layer="4616" to-port="1" />
		<edge from-layer="4616" from-port="2" to-layer="4617" to-port="1" />
		<edge from-layer="4617" from-port="2" to-layer="4618" to-port="1" />
		<edge from-layer="4618" from-port="2" to-layer="4620" to-port="0" />
		<edge from-layer="4619" from-port="0" to-layer="4620" to-port="1" />
		<edge from-layer="4620" from-port="2" to-layer="4625" to-port="0" />
		<edge from-layer="4621" from-port="0" to-layer="4625" to-port="1" />
		<edge from-layer="4622" from-port="0" to-layer="4625" to-port="2" />
		<edge from-layer="4623" from-port="0" to-layer="4625" to-port="3" />
		<edge from-layer="4624" from-port="0" to-layer="4625" to-port="4" />
		<edge from-layer="4625" from-port="5" to-layer="4630" to-port="0" />
		<edge from-layer="4626" from-port="0" to-layer="4627" to-port="0" />
		<edge from-layer="4627" from-port="1" to-layer="4629" to-port="0" />
		<edge from-layer="4628" from-port="0" to-layer="4629" to-port="1" />
		<edge from-layer="4629" from-port="2" to-layer="4630" to-port="1" />
		<edge from-layer="4630" from-port="2" to-layer="4631" to-port="1" />
		<edge from-layer="4631" from-port="2" to-layer="4641" to-port="0" />
		<edge from-layer="4631" from-port="2" to-layer="4634" to-port="0" />
		<edge from-layer="4631" from-port="2" to-layer="4758" to-port="0" />
		<edge from-layer="4632" from-port="0" to-layer="4640" to-port="0" />
		<edge from-layer="4633" from-port="0" to-layer="4634" to-port="1" />
		<edge from-layer="4634" from-port="2" to-layer="4636" to-port="0" />
		<edge from-layer="4635" from-port="0" to-layer="4636" to-port="1" />
		<edge from-layer="4636" from-port="2" to-layer="4638" to-port="0" />
		<edge from-layer="4637" from-port="0" to-layer="4638" to-port="1" />
		<edge from-layer="4638" from-port="2" to-layer="4639" to-port="0" />
		<edge from-layer="4639" from-port="1" to-layer="4640" to-port="1" />
		<edge from-layer="4640" from-port="2" to-layer="4641" to-port="1" />
		<edge from-layer="4641" from-port="2" to-layer="4642" to-port="1" />
		<edge from-layer="4642" from-port="2" to-layer="4644" to-port="0" />
		<edge from-layer="4643" from-port="0" to-layer="4644" to-port="1" />
		<edge from-layer="4644" from-port="2" to-layer="4649" to-port="0" />
		<edge from-layer="4645" from-port="0" to-layer="4649" to-port="1" />
		<edge from-layer="4646" from-port="0" to-layer="4649" to-port="2" />
		<edge from-layer="4647" from-port="0" to-layer="4649" to-port="3" />
		<edge from-layer="4648" from-port="0" to-layer="4649" to-port="4" />
		<edge from-layer="4649" from-port="5" to-layer="4723" to-port="0" />
		<edge from-layer="4649" from-port="5" to-layer="4665" to-port="0" />
		<edge from-layer="4649" from-port="5" to-layer="4654" to-port="0" />
		<edge from-layer="4650" from-port="0" to-layer="4651" to-port="0" />
		<edge from-layer="4651" from-port="1" to-layer="4653" to-port="0" />
		<edge from-layer="4652" from-port="0" to-layer="4653" to-port="1" />
		<edge from-layer="4653" from-port="2" to-layer="4654" to-port="1" />
		<edge from-layer="4654" from-port="2" to-layer="4656" to-port="0" />
		<edge from-layer="4655" from-port="0" to-layer="4656" to-port="1" />
		<edge from-layer="4656" from-port="2" to-layer="4658" to-port="0" />
		<edge from-layer="4657" from-port="0" to-layer="4658" to-port="1" />
		<edge from-layer="4658" from-port="2" to-layer="4659" to-port="1" />
		<edge from-layer="4659" from-port="2" to-layer="4741" to-port="1" />
		<edge from-layer="4659" from-port="2" to-layer="4660" to-port="0" />
		<edge from-layer="4661" from-port="0" to-layer="4662" to-port="0" />
		<edge from-layer="4662" from-port="1" to-layer="4664" to-port="0" />
		<edge from-layer="4663" from-port="0" to-layer="4664" to-port="1" />
		<edge from-layer="4664" from-port="2" to-layer="4665" to-port="1" />
		<edge from-layer="4665" from-port="2" to-layer="4667" to-port="0" />
		<edge from-layer="4666" from-port="0" to-layer="4667" to-port="1" />
		<edge from-layer="4667" from-port="2" to-layer="4669" to-port="0" />
		<edge from-layer="4668" from-port="0" to-layer="4669" to-port="1" />
		<edge from-layer="4669" from-port="2" to-layer="4670" to-port="1" />
		<edge from-layer="4670" from-port="2" to-layer="4671" to-port="0" />
		<edge from-layer="4670" from-port="2" to-layer="4737" to-port="0" />
		<edge from-layer="4718" from-port="0" to-layer="4881" to-port="0" />
		<edge from-layer="4719" from-port="0" to-layer="4720" to-port="0" />
		<edge from-layer="4720" from-port="1" to-layer="4722" to-port="0" />
		<edge from-layer="4721" from-port="0" to-layer="4722" to-port="1" />
		<edge from-layer="4722" from-port="2" to-layer="4723" to-port="1" />
		<edge from-layer="4723" from-port="2" to-layer="4728" to-port="0" />
		<edge from-layer="4724" from-port="0" to-layer="4728" to-port="1" />
		<edge from-layer="4725" from-port="0" to-layer="4728" to-port="2" />
		<edge from-layer="4726" from-port="0" to-layer="4728" to-port="3" />
		<edge from-layer="4727" from-port="0" to-layer="4728" to-port="4" />
		<edge from-layer="4728" from-port="5" to-layer="4730" to-port="0" />
		<edge from-layer="4729" from-port="0" to-layer="4730" to-port="1" />
		<edge from-layer="4730" from-port="2" to-layer="4732" to-port="0" />
		<edge from-layer="4731" from-port="0" to-layer="4732" to-port="1" />
		<edge from-layer="4732" from-port="2" to-layer="4738" to-port="0" />
		<edge from-layer="4733" from-port="0" to-layer="4737" to-port="1" />
		<edge from-layer="4734" from-port="0" to-layer="4737" to-port="2" />
		<edge from-layer="4735" from-port="0" to-layer="4737" to-port="3" />
		<edge from-layer="4736" from-port="0" to-layer="4737" to-port="4" />
		<edge from-layer="4737" from-port="5" to-layer="4738" to-port="1" />
		<edge from-layer="4738" from-port="2" to-layer="4739" to-port="0" />
		<edge from-layer="4739" from-port="2" to-layer="4740" to-port="0" />
		<edge from-layer="4740" from-port="1" to-layer="4741" to-port="0" />
		<edge from-layer="4741" from-port="2" to-layer="4743" to-port="0" />
		<edge from-layer="4742" from-port="0" to-layer="4743" to-port="1" />
		<edge from-layer="4743" from-port="2" to-layer="4745" to-port="0" />
		<edge from-layer="4744" from-port="0" to-layer="4745" to-port="1" />
		<edge from-layer="4745" from-port="2" to-layer="4747" to-port="0" />
		<edge from-layer="4746" from-port="0" to-layer="4747" to-port="1" />
		<edge from-layer="4747" from-port="2" to-layer="4752" to-port="0" />
		<edge from-layer="4748" from-port="0" to-layer="4752" to-port="1" />
		<edge from-layer="4749" from-port="0" to-layer="4752" to-port="2" />
		<edge from-layer="4750" from-port="0" to-layer="4752" to-port="3" />
		<edge from-layer="4751" from-port="0" to-layer="4752" to-port="4" />
		<edge from-layer="4752" from-port="5" to-layer="4757" to-port="0" />
		<edge from-layer="4753" from-port="0" to-layer="4754" to-port="0" />
		<edge from-layer="4754" from-port="1" to-layer="4756" to-port="0" />
		<edge from-layer="4755" from-port="0" to-layer="4756" to-port="1" />
		<edge from-layer="4756" from-port="2" to-layer="4757" to-port="1" />
		<edge from-layer="4757" from-port="2" to-layer="4758" to-port="1" />
		<edge from-layer="4758" from-port="2" to-layer="4762" to-port="0" />
		<edge from-layer="4758" from-port="2" to-layer="4769" to-port="0" />
		<edge from-layer="4758" from-port="2" to-layer="4826" to-port="0" />
		<edge from-layer="4759" from-port="0" to-layer="4770" to-port="0" />
		<edge from-layer="4760" from-port="0" to-layer="4768" to-port="0" />
		<edge from-layer="4761" from-port="0" to-layer="4762" to-port="1" />
		<edge from-layer="4762" from-port="2" to-layer="4764" to-port="0" />
		<edge from-layer="4763" from-port="0" to-layer="4764" to-port="1" />
		<edge from-layer="4764" from-port="2" to-layer="4766" to-port="0" />
		<edge from-layer="4765" from-port="0" to-layer="4766" to-port="1" />
		<edge from-layer="4766" from-port="2" to-layer="4767" to-port="0" />
		<edge from-layer="4767" from-port="1" to-layer="4768" to-port="1" />
		<edge from-layer="4768" from-port="2" to-layer="4769" to-port="1" />
		<edge from-layer="4769" from-port="2" to-layer="4770" to-port="1" />
		<edge from-layer="4770" from-port="2" to-layer="4772" to-port="0" />
		<edge from-layer="4771" from-port="0" to-layer="4772" to-port="1" />
		<edge from-layer="4772" from-port="2" to-layer="4777" to-port="0" />
		<edge from-layer="4773" from-port="0" to-layer="4777" to-port="1" />
		<edge from-layer="4774" from-port="0" to-layer="4777" to-port="2" />
		<edge from-layer="4775" from-port="0" to-layer="4777" to-port="3" />
		<edge from-layer="4776" from-port="0" to-layer="4777" to-port="4" />
		<edge from-layer="4777" from-port="5" to-layer="4782" to-port="0" />
		<edge from-layer="4778" from-port="0" to-layer="4779" to-port="0" />
		<edge from-layer="4779" from-port="1" to-layer="4781" to-port="0" />
		<edge from-layer="4780" from-port="0" to-layer="4781" to-port="1" />
		<edge from-layer="4781" from-port="2" to-layer="4782" to-port="1" />
		<edge from-layer="4782" from-port="2" to-layer="4787" to-port="0" />
		<edge from-layer="4783" from-port="0" to-layer="4787" to-port="1" />
		<edge from-layer="4784" from-port="0" to-layer="4787" to-port="2" />
		<edge from-layer="4785" from-port="0" to-layer="4787" to-port="3" />
		<edge from-layer="4786" from-port="0" to-layer="4787" to-port="4" />
		<edge from-layer="4787" from-port="5" to-layer="4789" to-port="0" />
		<edge from-layer="4788" from-port="0" to-layer="4789" to-port="1" />
		<edge from-layer="4789" from-port="2" to-layer="4791" to-port="0" />
		<edge from-layer="4790" from-port="0" to-layer="4791" to-port="1" />
		<edge from-layer="4791" from-port="2" to-layer="4797" to-port="0" />
		<edge from-layer="4792" from-port="0" to-layer="4796" to-port="1" />
		<edge from-layer="4793" from-port="0" to-layer="4796" to-port="2" />
		<edge from-layer="4794" from-port="0" to-layer="4796" to-port="3" />
		<edge from-layer="4795" from-port="0" to-layer="4796" to-port="4" />
		<edge from-layer="4796" from-port="5" to-layer="4797" to-port="1" />
		<edge from-layer="4797" from-port="2" to-layer="4798" to-port="0" />
		<edge from-layer="4798" from-port="2" to-layer="4799" to-port="0" />
		<edge from-layer="4799" from-port="1" to-layer="4804" to-port="0" />
		<edge from-layer="4800" from-port="0" to-layer="4804" to-port="1" />
		<edge from-layer="4801" from-port="0" to-layer="4804" to-port="2" />
		<edge from-layer="4802" from-port="0" to-layer="4804" to-port="3" />
		<edge from-layer="4803" from-port="0" to-layer="4804" to-port="4" />
		<edge from-layer="4804" from-port="5" to-layer="4810" to-port="0" />
		<edge from-layer="4805" from-port="0" to-layer="4809" to-port="1" />
		<edge from-layer="4806" from-port="0" to-layer="4809" to-port="2" />
		<edge from-layer="4807" from-port="0" to-layer="4809" to-port="3" />
		<edge from-layer="4808" from-port="0" to-layer="4809" to-port="4" />
		<edge from-layer="4809" from-port="5" to-layer="4810" to-port="1" />
		<edge from-layer="4810" from-port="2" to-layer="4812" to-port="0" />
		<edge from-layer="4811" from-port="0" to-layer="4812" to-port="1" />
		<edge from-layer="4812" from-port="2" to-layer="4813" to-port="0" />
		<edge from-layer="4813" from-port="2" to-layer="4815" to-port="0" />
		<edge from-layer="4814" from-port="0" to-layer="4815" to-port="1" />
		<edge from-layer="4815" from-port="2" to-layer="4820" to-port="0" />
		<edge from-layer="4816" from-port="0" to-layer="4820" to-port="1" />
		<edge from-layer="4817" from-port="0" to-layer="4820" to-port="2" />
		<edge from-layer="4818" from-port="0" to-layer="4820" to-port="3" />
		<edge from-layer="4819" from-port="0" to-layer="4820" to-port="4" />
		<edge from-layer="4820" from-port="5" to-layer="4825" to-port="0" />
		<edge from-layer="4821" from-port="0" to-layer="4822" to-port="0" />
		<edge from-layer="4822" from-port="1" to-layer="4824" to-port="0" />
		<edge from-layer="4823" from-port="0" to-layer="4824" to-port="1" />
		<edge from-layer="4824" from-port="2" to-layer="4825" to-port="1" />
		<edge from-layer="4825" from-port="2" to-layer="4826" to-port="1" />
		<edge from-layer="4826" from-port="2" to-layer="4830" to-port="0" />
		<edge from-layer="4826" from-port="2" to-layer="4837" to-port="0" />
		<edge from-layer="4826" from-port="2" to-layer="4870" to-port="0" />
		<edge from-layer="4827" from-port="0" to-layer="4838" to-port="0" />
		<edge from-layer="4828" from-port="0" to-layer="4836" to-port="0" />
		<edge from-layer="4829" from-port="0" to-layer="4830" to-port="1" />
		<edge from-layer="4830" from-port="2" to-layer="4832" to-port="0" />
		<edge from-layer="4831" from-port="0" to-layer="4832" to-port="1" />
		<edge from-layer="4832" from-port="2" to-layer="4834" to-port="0" />
		<edge from-layer="4833" from-port="0" to-layer="4834" to-port="1" />
		<edge from-layer="4834" from-port="2" to-layer="4835" to-port="0" />
		<edge from-layer="4835" from-port="1" to-layer="4836" to-port="1" />
		<edge from-layer="4836" from-port="2" to-layer="4837" to-port="1" />
		<edge from-layer="4837" from-port="2" to-layer="4838" to-port="1" />
		<edge from-layer="4838" from-port="2" to-layer="4840" to-port="0" />
		<edge from-layer="4839" from-port="0" to-layer="4840" to-port="1" />
		<edge from-layer="4840" from-port="2" to-layer="4845" to-port="0" />
		<edge from-layer="4841" from-port="0" to-layer="4845" to-port="1" />
		<edge from-layer="4842" from-port="0" to-layer="4845" to-port="2" />
		<edge from-layer="4843" from-port="0" to-layer="4845" to-port="3" />
		<edge from-layer="4844" from-port="0" to-layer="4845" to-port="4" />
		<edge from-layer="4845" from-port="5" to-layer="4850" to-port="0" />
		<edge from-layer="4845" from-port="5" to-layer="4856" to-port="0" />
		<edge from-layer="4846" from-port="0" to-layer="4847" to-port="0" />
		<edge from-layer="4847" from-port="1" to-layer="4849" to-port="0" />
		<edge from-layer="4848" from-port="0" to-layer="4849" to-port="1" />
		<edge from-layer="4849" from-port="2" to-layer="4850" to-port="1" />
		<edge from-layer="4850" from-port="2" to-layer="4851" to-port="0" />
		<edge from-layer="4851" from-port="1" to-layer="4857" to-port="0" />
		<edge from-layer="4852" from-port="0" to-layer="4853" to-port="0" />
		<edge from-layer="4853" from-port="1" to-layer="4855" to-port="0" />
		<edge from-layer="4854" from-port="0" to-layer="4855" to-port="1" />
		<edge from-layer="4855" from-port="2" to-layer="4856" to-port="1" />
		<edge from-layer="4856" from-port="2" to-layer="4857" to-port="1" />
		<edge from-layer="4857" from-port="2" to-layer="4859" to-port="0" />
		<edge from-layer="4858" from-port="0" to-layer="4859" to-port="1" />
		<edge from-layer="4859" from-port="2" to-layer="4864" to-port="0" />
		<edge from-layer="4860" from-port="0" to-layer="4864" to-port="1" />
		<edge from-layer="4861" from-port="0" to-layer="4864" to-port="2" />
		<edge from-layer="4862" from-port="0" to-layer="4864" to-port="3" />
		<edge from-layer="4863" from-port="0" to-layer="4864" to-port="4" />
		<edge from-layer="4864" from-port="5" to-layer="4869" to-port="0" />
		<edge from-layer="4865" from-port="0" to-layer="4866" to-port="0" />
		<edge from-layer="4866" from-port="1" to-layer="4868" to-port="0" />
		<edge from-layer="4867" from-port="0" to-layer="4868" to-port="1" />
		<edge from-layer="4868" from-port="2" to-layer="4869" to-port="1" />
		<edge from-layer="4869" from-port="2" to-layer="4870" to-port="1" />
		<edge from-layer="4870" from-port="2" to-layer="4873" to-port="0" />
		<edge from-layer="4870" from-port="2" to-layer="4880" to-port="0" />
		<edge from-layer="4871" from-port="0" to-layer="4879" to-port="0" />
		<edge from-layer="4872" from-port="0" to-layer="4873" to-port="1" />
		<edge from-layer="4873" from-port="2" to-layer="4875" to-port="0" />
		<edge from-layer="4874" from-port="0" to-layer="4875" to-port="1" />
		<edge from-layer="4875" from-port="2" to-layer="4877" to-port="0" />
		<edge from-layer="4876" from-port="0" to-layer="4877" to-port="1" />
		<edge from-layer="4877" from-port="2" to-layer="4878" to-port="0" />
		<edge from-layer="4878" from-port="1" to-layer="4879" to-port="1" />
		<edge from-layer="4879" from-port="2" to-layer="4880" to-port="1" />
		<edge from-layer="4880" from-port="2" to-layer="4881" to-port="1" />
		<edge from-layer="4881" from-port="2" to-layer="4883" to-port="0" />
		<edge from-layer="4882" from-port="0" to-layer="4883" to-port="1" />
		<edge from-layer="4883" from-port="2" to-layer="4888" to-port="0" />
		<edge from-layer="4884" from-port="0" to-layer="4888" to-port="1" />
		<edge from-layer="4885" from-port="0" to-layer="4888" to-port="2" />
		<edge from-layer="4886" from-port="0" to-layer="4888" to-port="3" />
		<edge from-layer="4887" from-port="0" to-layer="4888" to-port="4" />
		<edge from-layer="4888" from-port="5" to-layer="4893" to-port="0" />
		<edge from-layer="4889" from-port="0" to-layer="4890" to-port="0" />
		<edge from-layer="4890" from-port="1" to-layer="4892" to-port="0" />
		<edge from-layer="4891" from-port="0" to-layer="4892" to-port="1" />
		<edge from-layer="4892" from-port="2" to-layer="4893" to-port="1" />
		<edge from-layer="4893" from-port="2" to-layer="4894" to-port="0" />
	</edges>
	<rt_info>
		<Runtime_version value="2024.4.0-16579-c3152d32c9c-releases/2024/4" />
		<conversion_parameters>
			<framework value="pytorch" />
			<is_python_object value="True" />
		</conversion_parameters>
		<nncf>
			<friendly_names_were_updated value="True" />
			<quantization>
				<advanced_parameters value="{'overflow_fix': None, 'quantize_outputs': False, 'inplace_statistics': True, 'disable_channel_alignment': True, 'disable_bias_correction': True, 'batchwise_statistics': None, 'activations_quantization_params': None, 'weights_quantization_params': None, 'activations_range_estimator_params': {'min': {'statistics_type': None, 'aggregator_type': None, 'clipping_value': None, 'quantile_outlier_prob': 0.0001}, 'max': {'statistics_type': 'quantile', 'aggregator_type': None, 'clipping_value': None, 'quantile_outlier_prob': 0.0001}}, 'weights_range_estimator_params': {'min': {'statistics_type': None, 'aggregator_type': None, 'clipping_value': None, 'quantile_outlier_prob': 0.0001}, 'max': {'statistics_type': None, 'aggregator_type': None, 'clipping_value': None, 'quantile_outlier_prob': 0.0001}}, 'bias_correction_params': {'apply_for_all_nodes': False, 'threshold': None}, 'smooth_quant_alphas': {'convolution': -1, 'matmul': 0.95}, 'smooth_quant_alpha': None, 'backend_params': {}}" />
				<fast_bias_correction value="True" />
				<ignored_scope value="None" />
				<model_type value="transformer" />
				<preset value="None" />
				<subset_size value="267" />
				<target_device value="ANY" />
			</quantization>
		</nncf>
		<optimum>
			<optimum_intel_version value="1.20.0.dev0+cff9902" />
			<optimum_version value="1.22.0" />
			<pytorch_version value="2.4.1+cpu" />
			<transformers_version value="4.44.2" />
		</optimum>
	</rt_info>
</net>
